test/assets/hf-internal-testing_unidiffuser-test-v1/text_encoder/pytorch_model.bin (torch, 301680 bytes, 84 tensors)

text_model.embeddings.token_embedding.weight f4 [1000, 32]
00000000: d6ae 2ebc 5526 443c 6a01 a6bc 3246 36bd
00000010: f551 c03c 7bf8 0cbd 8ae9 3dbb 97d7 e3ba
00000020: a4d3 0a3c d4b9 97bc 2cf8 febc fb3d 633c
00000030: e15a fcbb d06e a439 f404 a0bc a1cd a9bc
00000040: a2a6 9abc 4096 fe3c fcde 76bc 7a50 8bbb
00000050: b2e1 62bc 1007 883c 1218 29bb 21c1 afbb
00000060: cc05 133b f020 b5bc 003f 503c 6a8c a2bb
00000070: 255d df3b 6976 de3c 23bc 0b3d f478 9ebc
00000080: caaa dabc 5da2 3a3c abc8 aebb f410 de3c
00000090: 120b 683b 195e 723c 8bb9 3cbc 900d d43b
000000a0: 47d0 a0bb 99ea 98bc 8793 9fbc 5826 0d3c
000000b0: 3d0c 543d 04c1 513c 4f00 4bbc 64a9 3ebc
000000c0: ed22 193d c0b5 4aba 4701 aa3c 80a6 313c
000000d0: 2e03 a03b 6e99 b23c 71ee 12bd db85 88bb
000000e0: b3c4 75bc 6db6 9dbc a27b a43c 252a afbc
000000f0: 9a03 173b f713 26bd d2f2 b93b 2b68 9b3b
00000100: a268 043c 64f3 8abc 7660 9bbb 220d 243c
00000110: a63d 9e3b 474e 203d 9759 7f3d ef61 72bd
00000120: 782e f1bc dee7 f03c e363 213c 5ba1 0e3d
00000130: 9b4d 963c 251c 903c 5c74 1b3d c24f 713b
00000140: 3978 90bb 648f 883c de58 943b 3050 91bc
00000150: e45d ab3c 3876 4f3c e858 89bb 1444 4139
00000160: 1928 80bc a587 933c 70c7 e7bc 4007 2fbd
00000170: 42a0 92bd 4aa9 e43c 2b92 1cbc 6ff2 0a3d
00000180: ef55 273c 6748 313d d004 4e3b 507b ef3a
00000190: 3770 80bc 6098 113d 7dc2 12bc 33d1 3bbc
000001a0: 5392 abbc 921d 013c 00cf b1bc 3ffc 8dbb
000001b0: 7e14 76bc 9421 a73b 4798 e3bc f4a2 1e3b
000001c0: 79ce 963b d030 383c 3014 073d 8f02 9d39
000001d0: c1ff 22bc d97a bc3c 7855 4a3c 46a3 aa3b
000001e0: 142c f73b 7921 e93b 96cf 16ba b698 863c
000001f0: 1853 0f3c b8b8 ebbc 7482 d93c 92f5 afbc
00000200: 21a2 cc3b d874 91bc f5a4 b23c 470e 663a
00000210: 20ab 233c cbdc 71bd b9fa e2bc 6f69 1eba
00000220: 4c20 563c a370 793c 5c52 883c cef6 103d
00000230: edb9 c5bc 1236 0b3d 74eb 673c 5be1 8b3c
00000240: 8905 37bc 0ac2 f73a 3e94 3fba 3380 ff3a
00000250: 1eb1 10bd 724e 313b dcf0 dfbb 6ef5 d8bc
00000260: 44b7 013c 0794 afbc f7f2 093b 6a61 d5bb
00000270: 17e6 533c 722a 13bd 5b33 d63a ac04 6d3b
00000280: c2c1 2e3c af4f b8bc b99b b1bc 33a8 a43b
00000290: 6537 a83b 39b4 a2bb be8e bbbc e25b a33c
000002a0: 01d4 5abc 2369 083b f542 0dbd a425 87bb
000002b0: 1842 fe3b 902a 18bc 3208 6ebb 8b52 063d
000002c0: 8cb6 f53b bca5 e038 56e4 9bb8 a03d f83a
000002d0: b049 80bc fce0 a43c 7ed7 17bc a1ac 1bbc
000002e0: bd44 273b 4438 05bd d31f 743c 290f a53c
000002f0: c060 08bc 120f 4fbc 5387 34bc b717 813c
00000300: 1b5e 4d3c 0fb8 453c 24e3 51bb a0b9 b4bc
00000310: ad8d 8dbb 0610 8f3c 27c2 f2bc 29a4 453c
00000320: c55e b63c 0aa3 693b 3824 89bc 6ad7 b03a
00000330: 146a 89bb c9ef f8bb 1ff7 0abd 8d9f babc
00000340: 89ad 09bb e2bd 873c d693 9cbb d4be 45bc
00000350: 590d 1dbd a014 c7bc 92e0 cdbb 5baf 9e3c
00000360: 770d 423c 9d10 923b be8b 5cbb 7020 9bbc
00000370: 0a5b 353c 95ce bbbb 98c6 51bc 7866 6b3c
00000380: 5e3a 873b dbcc 293c 52e3 dd3c f92e 993b
00000390: 926e 7cba 5b50 543c fd84 8abc 9d47 023c
000003a0: e199 f7bb 1be8 2f3c 4de5 bebc ca26 26bc
000003b0: 7b23 c4ba 5544 01bc 232b 68bc 50d2 bdbc
000003c0: aded 863c 8173 5dbc 0481 923c c726 fa3c
000003d0: d058 893b ad30 843d 3b83 8abc 7005 29bc
000003e0: cd42 3dbc 08d1 213d bbf0 17bb 6fd6 533b
000003f0: 427d bd3c bc62 f03c 824a 983c 4ad1 c93b
-0.010661801 0.01197203 -0.020264346 -0.044500537 0.02347658 -0.034416657 -0.0028978311 -0.0017382976
0.008473311 -0.018521227 -0.031124197 0.013869758 -0.0077012633 0.0003136308 -0.019533612 -0.020727934
-0.018878285 0.031077504 -0.015067812 -0.004251537 -0.013847755 0.01660493 -0.00258017 -0.005363599
0.0022433875 -0.022110432 0.012710333 -0.0049605863 0.0068165236 0.027156072 0.034114968 -0.019344784
-0.026692767 0.0113912495 -0.00533398 0.027107693 0.003540699 0.014792942 -0.011518846 0.0064713433
-0.004907641 -0.018666552 -0.019479526 0.008615099 0.051769484 0.012802366 -0.01239021 -0.011637066
0.037386823 -0.00077327713 0.020752562 0.010842919 0.0048831915 0.021801677 -0.035871927 -0.0041663474
-0.01500051 -0.019252026 0.020078484 -0.0213824 0.0023042918 -0.040546384 0.0056746984 0.0047426424
0.008081587 -0.01696176 -0.0047417236 0.010012897 0.0048291264 0.03913715 0.0623413 -0.059175428
-0.029441103 0.029407438 0.009850475 0.03482185 0.018347552 0.017591545 0.037952766 0.003682122
-0.004408863 0.016669936 0.0045271954 -0.017738432 0.020918794 0.012662463 -0.0041915067 0.00018431275
-0.01564412 0.018009016 -0.028293341 -0.042731524 -0.07159473 0.027912755 -0.009556334 0.03392261
0.010213359 0.04328194 0.0031435974 0.0018271003 -0.015678508 0.035545707 -0.008957502 -0.011463451
-0.020943796 0.007880585 -0.02170515 -0.0043330486 -0.015019534 0.0051004384 -0.027782572 0.0024206014
0.00460225 0.011242107 0.032978237 0.0002994728 -0.009948672 0.023007797 0.012349479 0.005207452
0.0075430963 0.007114586 -0.00057529786 0.01643024 0.008747838 -0.028774604 0.026551463 -0.021479402
0.006244913 -0.01775591 0.021807173 0.0008775931 0.00998953 -0.059048455 -0.027707445 -0.00060429325
0.013069224 0.015224609 0.016640835 0.03539162 -0.024136508 0.033987112 0.0141552575 0.017075231
-0.011170753 0.0018902433 -0.00073081616 0.0019493162 -0.035325162 0.0027054814 -0.0068341326 -0.026484217
0.007917229 -0.02143289 0.002104936 -0.006511857 0.012933276 -0.03592915 0.001634221 0.0036166115
0.010666313 -0.022498934 -0.0216807 0.0050249337 0.0051335567 -0.004965332 -0.022895213 0.019941274
-0.01335621 0.002081462 -0.034487683 -0.00412436 0.007759344 -0.009287491 -0.0036320803 0.032793563
0.007498568 0.00010712023 -7.433507e-05 0.0018939264 -0.015660137 0.020126812 -0.009267686 -0.009501607
0.002552315 -0.032524362 0.014900166 0.02014883 -0.008323848 -0.01263787 -0.011018592 0.015758378
0.0125346435 0.012067809 -0.0032026256 -0.02206117 -0.0043198676 0.017463695 -0.029633595 0.012063065
0.022261987 0.0035650157 -0.016740903 0.0013491933 -0.0041935537 -0.007596944 -0.03392708 -0.022781158
-0.0021007976 0.016570035 -0.0047783656 -0.012069423 -0.038342807 -0.024301827 -0.0062828744 0.019370725
0.011844031 0.004457547 -0.0033652629 -0.018936366 0.011069069 -0.0057314136 -0.012803696 0.014367692
0.004126831 0.010363783 0.027085934 0.004674789 -0.00096295134 0.012958611 -0.016909117 0.007951644
-0.0075561856 0.010736491 -0.023302699 -0.010141084 -0.0014964187 -0.007889827 -0.014170441 -0.023171574
0.016470755 -0.013516308 0.017883785 0.030536069 0.0041914955 0.06454597 -0.016908279 -0.010316238
-0.011551571 0.03950599 -0.0023184258 0.0032323857 0.023131017 0.029343955 0.018590216 0.0061589824

text_model.embeddings.position_embedding.weight f4 [77, 32]
00000000: 17ca c3bc f519 913c ced1 29bd 240f 943b
00000010: f45f 12bb c57a 52bc d353 393b 4d29 183c
00000020: 6278 203d 8fb2 4239 e520 02bd 257a 26bc
00000030: 44c6 5a3c feb3 46bd bd3b 67bd a78c a93c
00000040: 003f ba3c 013c 71bd 59d5 8b3a bd47 d438
00000050: 709d 09bd fe3e 463d 3092 ccbb eaa9 f5bb
00000060: 3765 cbbc c79f 0bbc 8b75 343b d532 07bb
00000070: 0f20 a93c c005 e23c 8bce 19bc 66b0 83bc
00000080: 424a 48bd bbf3 04bd 0a57 65bb 851d dd3a
00000090: 22f4 04bc f336 943c aca8 713c f51f bebc
000000a0: 278c c0bb 3730 103c 59a3 6b3b 5e6f d93b
000000b0: 5435 343b cbd5 243c 3c38 223d 773e b33c
000000c0: 451b debc 386d f33c afed a0bc 5907 fa3c
000000d0: d86d 433c 00f2 10bd 06f3 533c 36fc ac3c
000000e0: 702c fbbb 9d3e 0a3c 9951 b13c ba70 03bd
000000f0: 23cb 053c d2fc 48bc af0b 4bbd 4910 bdbc
00000100: c669 dfbc 3827 d33c 9b8c 623d b412 293d
00000110: 6b5d caba 223f 0bbc 39a8 803b caea 46bd
00000120: 81f6 05bc bb82 853a 0ee8 66bb 701e 9e3c
00000130: 727e ce3c 74b0 313c 341a a5bb 5b80 ec3c
00000140: 5ce0 aa3c 05a8 2ebc b580 9a3c bf14 8fbc
00000150: 0a16 eb3c c2d5 ea3b 2b38 353d 9c3b c83c
00000160: 2269 003d 8543 6f3c f221 d23b d8ef 9e3c
00000170: ebf8 d53a 30e7 c63b 1b49 233b a9ba 003b
00000180: 0101 463d c2e7 04bd 84f9 9dbc bb74 013d
00000190: d5d8 34bc 6eba 143c 1403 82bc 1015 af3c
000001a0: 8132 e7bb 5426 573c c187 7d3a 0431 80bc
000001b0: 622b 4b3b 927c 44bb 8c5f 78ba 2fd8 cbbc
000001c0: 6568 e1bc 8b4c 0e3d 0fcd 833d c1f6 1dbd
000001d0: 44de 243d 87ae 14bc 21db 69bc ae17 d8bb
000001e0: 14b2 87bc 0ac6 f13c 9854 c23c 30c0 34bb
000001f0: c770 053d 1e26 b8bc a4b8 ca3b e2f0 803b
00000200: c5bc a3bc 41f9 033c 4403 0a39 fcb3 c23c
00000210: f138 90bc 4f15 13bd fcaa 5a3c 871a 933b
00000220: ceba edba 64b4 63bc fd04 9abc 58dd ed3b
00000230: 9f35 07bd 1e1a bd3c 21ef cbbc 659d 90bc
00000240: fed1 18bb 1461 ecbb 0bc4 493d aa17 e839
00000250: 7945 c83c 7ba2 d13c 7b85 ee3c d2ab b23c
00000260: 026b 4ebc e973 013d 7820 b9bc 7385 14bc
00000270: 7657 a93c 605b 1ab9 95e9 ff3c 0a07 bcbc
00000280: c6b0 deba c184 f83c b58e 833c f2e9 ccba
00000290: 99be 1cbc 5d48 78bb 68dc 0b3d e437 a73c
000002a0: f45b 52bc ee2e 0a3a db24 403c 69d3 9d3a
000002b0: 1dbf b73c a1a6 5f3c 2ee4 09bc a85b 803c
000002c0: 613b 29bc d865 803b 6726 e3ba 2fd4 40ba
000002d0: 39d6 6dbc e0ed e1bc 1c8a 2ebc aa76 e0bb
000002e0: f4ed cb3b 8222 36bd 29b9 183d 2ff1 31bc
000002f0: 792f 423b 8b01 f4bb bdf6 013c 9c45 a23b
00000300: c496 133c 3866 6cbb 7e52 f73c c470 023d
00000310: f0f3 edbb 21dd e6bb fe85 b03c a034 89bc
00000320: c9c7 53bc 27b5 30b9 4dca 2dbc e1d8 e33c
00000330: 73e4 3abd a60d 05bc f747 b53c 86a3 06bc
00000340: e51b b7bc de3c f53b 4d90 acbc 95cc 923c
00000350: 228e a03b 7b3a 8d3c 4cd3 16bc c57a 66bc
00000360: f28e 2f3c 671a 813c be5a 143d 3f66 9fbc
00000370: b9a6 aa3c ed56 aabc c649 42bc 9a6a 913a
00000380: e1fd 313c 958e d43c 7dd1 ea3c f54a b33c
00000390: efb3 663c f71c 183c 14c5 c73b 17e8 fe3c
000003a0: a9fd b4bc c20d d9bc 6d9f af3c 6a7f bc3c
000003b0: 145b 3d3c 756b b93b ec13 00bc aaf2 51bc
000003c0: 979c 42bc e514 c1bc 4a28 22bc ef54 adbc
000003d0: e923 143c 2b5b a43c 3748 803c 14c0 85bc
000003e0: b7cd 95bc 332e c23b 30ba 183d bb6a 963b
000003f0: 9eb8 babc 64f8 b3bc 084a 993c 6704 b8bc
-0.023900075 0.017712573 -0.04145985 0.0045184065 -0.0022335025 -0.012846653 0.0028278723 0.009287191
0.039177306 0.000185678 -0.031769652 -0.010160957 0.013352934 -0.048511498 -0.056453455 0.020696951
0.022735119 -0.058895115 0.0010668441 0.0001012231 -0.03359741 0.048399918 -0.006243013 -0.007497062
-0.024828536 -0.008521981 0.0027535881 -0.0020629663 0.02064517 0.027590632 -0.009387623 -0.016075324
-0.048898943 -0.032459002 -0.0034994506 0.001686976 -0.008114846 0.018092608 0.014749687 -0.023208598
-0.0058760825 0.008800558 0.0035955517 0.0066355905 0.0027497606 0.010060738 0.03960441 0.021880371
-0.027112613 0.029715165 -0.019644586 0.030521082 0.011928044 -0.03538704 0.012936359 0.021116357
-0.0076652095 0.00843778 0.021645354 -0.032089926 0.008166107 -0.012267308 -0.04957169 -0.023079054
-0.027272116 0.025775537 0.055309873 0.041277602 -0.0015439218 -0.008498939 0.0039263037 -0.048563756
-0.008176447 0.0010186055 -0.003523353 0.019301623 0.025206778 0.010845292 -0.005038524 0.028869798
0.020858936 -0.010660176 0.0188602 -0.017465947 0.028697032 0.007166595 0.04424302 0.024442486
0.031350262 0.0146035 0.006412738 0.019401476 0.0016324794 0.00607004 0.00249154 0.0019642508
0.0483408 -0.032447584 -0.019284017 0.031605463 -0.011038025 0.009077651 -0.015870608 0.021372348
-0.007055581 0.013131697 0.0009671413 -0.015648372 0.00310012 -0.0029981476 -0.0009474687 -0.024883358
-0.0275156 0.034740966 0.06435596 -0.0385654 0.04025103 -0.009074814 -0.014273436 -0.0065946197
-0.016564406 0.029513378 0.023721978 -0.0027580373 0.032578256 -0.022479113 0.0061865617 0.0039349655
-0.019987473 0.008055032 0.00013161922 0.023767464 -0.017605277 -0.035908993 0.01334643 0.0044892463
-0.0018137337 -0.013897989 -0.018801207 0.0072590522 -0.03301012 0.023083743 -0.024894299 -0.017653177
-0.0023318524 -0.007213721 0.049259227 0.0004426812 0.02444719 0.025590172 0.029116383 0.021810446
-0.012598755 0.03160468 -0.02259849 -0.00906502 0.020671587 -0.00014720624 0.03123931 -0.022952575
-0.0016989938 0.03033674 0.016059259 -0.0015633686 -0.009566926 -0.0037884929 0.034145743 0.020412393
-0.012839306 0.00052712753 0.011727537 0.0012041155 0.022429997 0.013650567 -0.008416219 0.015668705
-0.010329098 0.0039183907 -0.001733017 -0.00073558366 -0.014516407 -0.027579248 -0.010653045 -0.0068500834
0.0062234346 -0.044466503 0.037285957 -0.010860725 0.0029630347 -0.007446473 0.007932362 0.0049521457
0.009008113 -0.003607167 0.030190703 0.031845823 -0.0072617456 -0.0070454036 0.021548267 -0.016748726
-0.01292605 -0.00016852152 -0.010607314 0.027813377 -0.045628022 -0.00812093 0.022129042 -0.008217698
-0.022352168 0.0074840626 -0.021064902 0.017919818 0.004899756 0.0172398 -0.009205651 -0.0140673565
0.010715233 0.01575966 0.03621935 -0.019457934 0.020831453 -0.020793403 -0.011858409 0.0011094392
0.010863752 0.025946895 0.028664345 0.021886328 0.014080985 0.0092842495 0.0060964916 0.031116528
-0.02209361 -0.026495818 0.021438325 0.023009975 0.011557359 0.005658562 -0.00781725 -0.012814203
-0.011878154 -0.023569534 -0.009897301 -0.021158664 0.009041765 0.020063004 0.015659435 -0.016326942
-0.018286569 0.0059259175 0.037286937 0.00459036 -0.02279311 -0.021969028 0.018712059 -0.022463037

text_model.encoder.layers.0.self_attn.k_proj.weight f4 [32, 32]
00000000: 2d16 8d3d 5b61 b63d a1a8 533d 97f9 5fbd
00000010: 196b b9bc 183e 2ebd 4fb1 b03c 32a0 c43d
00000020: aaa8 023d b818 efbc 73fd 07bd a446 fabc
00000030: 4c04 81bc 9afd 1ebd 2768 3abd f4e4 f53c
00000040: 5dfa 4abd e30b b1bd c7a0 a4bc 0537 d9bd
00000050: 7f39 a4bc 63b0 f7bc a0ba 81bd 4bb2 b03c
00000060: ff18 d9bc 9787 56bd ad67 17bd cf68 dabb
00000070: 65c0 83bd 3c56 f33c 56a7 a4bc 4883 4ebd
00000080: 8199 f83c 1215 383c 53bd 96bc 7181 81bd
00000090: 00b6 ccbd 8a04 ab3d b448 52bd e39a f2ba
000000a0: e887 11bc a8c6 02bd 5e78 34be d93a 9cba
000000b0: 3d7e a9ba 67c6 d0bb a518 2d3d 9c4f ebbb
000000c0: 3d13 87bd bc48 dcbd 106c f4bd 846e e7bd
000000d0: abf4 8abd 2498 8f3d 768c 35bd 5478 7b3c
000000e0: 47e4 033d 72d1 5b3c b216 cb3d 3475 113d
000000f0: 3e54 a9bd 3d9b 183e 37eb 1abe 8530 913c
00000100: 21ab c73c 68bf 593d a57e 803c 4d94 e93d
00000110: 0881 f3bc 528b b5bd 6364 13bd a2d7 4aba
00000120: 67b0 943d 5561 ccbc a257 43bd 6263 4e3d
00000130: 63d4 d73d 7c50 233d 8163 063d 5fb5 bd3b
00000140: 3128 2dbd f938 45ba 4b3d b33c 410d 8d3c
00000150: 47b9 4cbd 1a1f 503d 2df6 a4bd 2e68 fdbb
00000160: 546c f83c 7978 543c 4ff8 18bd 7c1c 933c
00000170: 212c 3b3d abd0 25bd a24c 863d 44fc 5ebd
00000180: afa6 c33c c232 08bd 1192 613d 3df4 b2bc
00000190: 50cc 90bd bdc3 f33c 26b9 66bc ea96 f93d
000001a0: 1ee0 eeba 4dd1 673c a9cf 703d 1186 833d
000001b0: 8c09 8ebc 3341 03bd 3a6e eebb cfbe 2e3d
000001c0: 3b62 a83d 51fa 2fbe 2424 ff3c b7ae f9bd
000001d0: f938 493d f835 c3bd 14e5 1f3d 9739 85bd
000001e0: b33f 653d a458 66bd 71d7 943d 2348 2dbd
000001f0: ee0e 453d 6709 5f3d fe52 10bd 64ab a8bc
00000200: e4ad a93b 7538 2d3d 34bc 63bc 3aaf dcbb
00000210: 35c3 7c3d 2cc8 b33c 7618 31bd 5636 1dbb
00000220: de75 af3c f0d8 363d c003 213c 147f 98bb
00000230: 5d04 1a3d 04f4 a43d 9c42 313d f8af 073d
00000240: d5ff e2bd 3747 45bd 9bd6 70bc 16b6 22bd
00000250: 9fe2 79bd b236 7a3d f563 b0bd 407a ba3d
00000260: 4db5 0d3d b10e 003d 4281 b8b9 b154 423d
00000270: abf4 d7bc 2e1c 3e3d a6ed 6bbd 2aa4 8fbd
00000280: d624 ad3d 6377 ea3c 5a28 903d 2f7d a53a
00000290: 4138 38bd 919d 273d 7452 b0ba 0bdd d9bc
000002a0: c7ff 7b3d 3ccb d93c b173 833c f899 28bd
000002b0: e1f6 103d 96a9 dabb 4206 f2bc 4f37 9a3b
000002c0: 6ac5 853b 46f2 7dbb ac70 3abd 347f 2cbc
000002d0: 0b90 92bd 83e5 e93b 7f53 183d 3bf9 913c
000002e0: 8f1b 0cbd edce e03d 4e30 0f3d e939 e73c
000002f0: 3566 8bbc 1988 86bd c202 0abd d1cc 1f3d
00000300: ca38 bd3c 77df 02bc b7af 513c 1a71 ff3b
00000310: 4b07 3fb9 be69 093e 05ff b13d 1e6a 72bd
00000320: 19a6 3dbd 99c3 413d 309f 05bd 4b20 303d
00000330: 472c cfbc 6be7 fc3b 61a0 2c3b ecf2 e9bc
00000340: 5488 16bd 94b6 8ebc a67c 25bb 2dbf 01be
00000350: f87a 1f3d bff1 aa3c 7aac 713c 99b6 b9bd
00000360: 6ae0 89bd 8b25 52bd f45d d13c 3fde 14bd
00000370: 3332 23bd 8b09 b7bc 5143 44bc cb74 42bd
00000380: 656e 98bd aec4 683d d4ae d3bd 1fff a7bc
00000390: 851b 1a3d edcd 13bd aacd 95bd bb19 7dbc
000003a0: cda7 26bb 4a38 ad38 3c85 2839 59eb b5bc
000003b0: 64d1 c4bc 4cf6 07bd 0237 86bb 2820 c63c
000003c0: 3415 2a3d f77b 8b3d eccc 8b3c bb3e 7a3c
000003d0: 7397 763d 83d9 fcbc 52a7 10bd 847d bebd
000003e0: d295 403b c53e 2b3d ec2c a2bd 2c6f 2a3c
000003f0: 82ca cb3c b9a6 ab3c d6cd c5bb 3c68 c43d
0.06888995 0.08905288 0.05167449 -0.054681387 -0.022634076 -0.042539686 0.021568922 0.09600867
0.03189913 -0.029186592 -0.033200692 -0.030551262 -0.01574912 -0.038816072 -0.045509484 0.0300164
-0.04955517 -0.08644845 -0.020096196 -0.10606197 -0.020046948 -0.030235475 -0.06334424 0.021569392
-0.026501177 -0.052375402 -0.036964107 -0.006665326 -0.06433181 0.029704206 -0.020099323 -0.05041817
0.030346634 0.011235492 -0.018400824 -0.06323517 -0.09995651 0.08350475 -0.051338866 -0.0018509295
-0.0088825 -0.031927735 -0.17624041 -0.0011919393 -0.0012931299 -0.0063713077 0.04225983 -0.007181121
-0.06595466 -0.107560605 -0.11934674 -0.11300376 -0.06784948 0.070114404 -0.044323407 0.015348513
0.032200124 0.013416635 0.09916438 0.035512164 -0.08268021 0.14902969 -0.1512879 0.017723331
0.024373593 0.053161055 0.015685389 0.11405239 -0.029724613 -0.08864464 -0.035984408 -0.000773782
0.072602086 -0.024948755 -0.047690995 0.050387748 0.105385564 0.039871678 0.032809738 0.0057894434
-0.042274658 -0.0007523443 0.021879813 0.017218234 -0.04998138 0.05081091 -0.08054767 -0.0077333665
0.030325092 0.012968176 -0.03734618 0.017957918 0.04569638 -0.040482204 0.06557585 -0.054439798
0.023883192 -0.03325153 0.05507094 -0.021844978 -0.070702195 0.029756421 -0.014082229 0.12186988
-0.0018224751 0.014149022 0.05879179 0.064220555 -0.017338537 -0.0320446 -0.0072763236 0.042662438
0.08221861 -0.17185332 0.031145163 -0.12191527 0.0491266 -0.09531778 0.039036825 -0.06505125
0.05596895 -0.056236878 0.07267655 -0.042305123 0.04810994 0.054452326 -0.035235398 -0.020589538
0.0051782 0.04229017 -0.013899852 -0.006734756 0.0617096 0.021946035 -0.04323622 -0.0023988686
0.021418508 0.04464048 0.009827554 -0.004653821 0.037601817 0.08054355 0.043276414 0.0331268
-0.11083952 -0.04816362 -0.014699603 -0.039724432 -0.06100714 0.061087318 -0.08612815 0.091053486
0.03459673 0.03126401 -0.0003519152 0.04744405 -0.026361784 0.046413593 -0.057599686 -0.07013734
0.084542915 0.028621381 0.070389464 0.0012625809 -0.044975523 0.04092175 -0.0013452307 -0.02659466
0.061523225 0.026586168 0.016046377 -0.04116246 0.035391692 -0.0066730483 -0.029544 0.0047063003
0.0040823715 -0.0038749143 -0.04551761 -0.010528374 -0.0715638 0.0071379556 0.037189003 0.017819038
-0.03420597 0.10976968 0.034958176 0.028225856 -0.01701651 -0.06568927 -0.033694036 0.039013688
0.023098368 -0.0079878485 0.012798241 0.007795465 -0.00018217896 0.13419244 0.08691219 -0.059183232
-0.04630098 0.047305677 -0.032622516 0.042999547 -0.025289668 0.007718017 0.002634071 -0.028558217
-0.036751106 -0.017421044 -0.0025251298 -0.12670584 0.03893563 0.020867227 0.014750594 -0.09068031
-0.06732257 -0.051305335 0.025557496 -0.036344763 -0.039842796 -0.022343418 -0.01197894 -0.047474664
-0.07442931 0.056828193 -0.1033608 -0.020507393 0.0376239 -0.036085058 -0.07314618 -0.015448029
-0.0025429607 8.2597675e-05 0.00016071362 -0.02220695 -0.024025626 -0.03319387 -0.004095913 0.024185255
0.041524127 0.06810754 0.017065488 0.015273745 0.060203027 -0.030865436 -0.03531582 -0.09301284
0.0029386175 0.04180791 -0.079187244 0.010402482 0.024876837 0.020953523 -0.0060365004 0.09590194

text_model.encoder.layers.0.self_attn.k_proj.bias f4 [32]
00000000: 0000 0000 0000 0000 0000 0000 0000 0000
00000010: 0000 0000 0000 0000 0000 0000 0000 0000
00000020: 0000 0000 0000 0000 0000 0000 0000 0000
00000030: 0000 0000 0000 0000 0000 0000 0000 0000
00000040: 0000 0000 0000 0000 0000 0000 0000 0000
00000050: 0000 0000 0000 0000 0000 0000 0000 0000
00000060: 0000 0000 0000 0000 0000 0000 0000 0000
00000070: 0000 0000 0000 0000 0000 0000 0000 0000
0.0 0.0 0.0 0.0 0.0 0.0 0.0 0.0
0.0 0.0 0.0 0.0 0.0 0.0 0.0 0.0
0.0 0.0 0.0 0.0 0.0 0.0 0.0 0.0
0.0 0.0 0.0 0.0 0.0 0.0 0.0 0.0

text_model.encoder.layers.0.self_attn.v_proj.weight f4 [32, 32]
00000000: fd92 ebba a362 073e 0d81 643c 3e76 2a3d
00000010: 7a66 3d3d 8510 363e 9ae1 363d 0126 e73c
00000020: 46dc 1f3c 0526 a73c a710 963b b41e 7bbd
00000030: ca2e 063d 83f8 113d a577 04bd 6c63 893c
00000040: 5f90 c1bd d4f6 223c c5d7 f53c 765b a13c
00000050: e648 33bd 83ed 4d3b f661 e0bc 9f06 813d
00000060: 58ba b0bc 3811 033d 67ee 733d 16ef a3bc
00000070: ccb3 f63c d010 3e3c 9d91 b53c ef4b 0e3e
00000080: 0ff8 84bd 264b f63d a201 a43c 8e62 df3c
00000090: 7374 b0bd 16d7 19bd 63c9 5ebd ac25 9a3c
000000a0: 3cff f23b 3b6c 28bd 91ca c8bd c2a9 bd3d
000000b0: 2057 ba3d 9b47 253a bf72 86bd bf87 8a3d
000000c0: b0ea 93bd 1c99 b3bd 5b96 e93c 4789 ff3c
000000d0: 9d3e 7ebc dd01 a1bd df25 cebd ba4c 243d
000000e0: 90c6 203d 45ec 7dbc dcb1 073c 7572 bcbc
000000f0: b592 6cbd 0b77 88bd a8ac 6fbd 7791 03bc
00000100: c565 423c 510b b73c bd21 113d cf3a ceba
00000110: 3100 b43c 03c8 88bc 51d8 c23c 16d9 24bd
00000120: de32 b4bd 3af8 2abd aaa6 e43c 68dc 79bd
00000130: 54a4 153d e76b 48bc 6998 2abd 1777 e9bd
00000140: 2a6d 303c d9bd 6f3c 2e7b 4bbd b197 4d3d
00000150: 58cf 27bd 742c 2a3d c1f1 acbd e978 603d
00000160: 179a 103d faea 12bd cc74 763c 05a1 20bd
00000170: dfe7 703d b03f 543d 5598 70bc 4dfa 073d
00000180: 37a5 213d d8a6 283e a5a4 e3bc 9684 d93d
00000190: 8b67 a33d 6d3e b83d 30c6 9f3c dcd0 1e3c
000001a0: aecc 88bd b2eb a6bc c549 81bd 7af8 20be
000001b0: 08a9 aabc e89f 5cbc 287e 7c3d 59ff 3e3d
000001c0: f47e fdbc 48ed 8cbb 94ac 6abc e628 d23c
000001d0: c53d 113d e727 d7bd 03bb 1c3d 3c16 74bd
000001e0: 7b4b 5f3d 2e50 8f3d 74d5 57bd 068d 36bc
000001f0: 8e0d e53d 94ef ba3c 1ec1 28bd 0344 f43d
00000200: 9e5f 543d a47d 0e3b eb21 d1bd c0ac 74bd
00000210: e622 92bb 9088 533d 4e72 4f3d 9184 d33c
00000220: 404d b1bd ac69 053c 31aa 703b 323a 3f3c
00000230: a213 9c3b a8a7 893d fdbe 36bd 4a11 94bb
00000240: ef74 ce3c c196 53bd d137 743d 071d c1bd
00000250: 7134 8fbd 2b84 c53d d3c7 40bc 329a ca3d
00000260: 063f 543d e818 e7bd 9553 b93d 0f3d 0fbd
00000270: d7a2 683b ace2 3cbb 5d3c 18be 175c bfbd
00000280: 353e 133d f6ce 4b3d 2d04 b5bc 91be dbbd
00000290: 20b4 bb3d a1bf b83c 4912 23bd d7e2 263d
000002a0: 548f a5bd b2a1 bcbd 09c1 8cbc 0807 57bd
000002b0: e684 0f3c 8071 30bd 11d9 4e3d df33 913d
000002c0: a808 61bc 91e2 8dbb 7de2 1b3c e2a9 a43d
000002d0: 155a 13bd 8e2c fdbc 1154 073e 3c9b 8abd
000002e0: cf01 3f3c 7ebd a43c ef89 a33d 4865 263d
000002f0: 607f 06bd 11ca c9bc 5c3c 183d 3e8e 843d
00000300: 5e9e 973c 53b8 f63c 9c48 96bd e4dc b53d
00000310: 0ba3 85bd cae3 b3bd 9df3 8ebd 930b 0b3c
00000320: 9cd2 de3c 3c82 c6bd ca92 6bbd 0afb da3b
00000330: 8cba a13d e6f1 d4bc 7c67 ebbc 23a9 28bb
00000340: e0b9 023d 2ebe 063c ddca 093d 1b9f 3dbd
00000350: 60f5 bc3c 81d8 47bd e1ec f93c 7239 453d
00000360: 6ca3 753d 6005 d3bc 28ac 5ebd 186d 9a3d
00000370: 157b ea3c af25 f0bb 2ddf febc c092 313d
00000380: fa84 d3bc 9c16 5b3d 0393 d2bc bf03 923d
00000390: 501a 4e3d 8557 89bd 4fb1 a9bd 4e77 293d
000003a0: eb49 cbbd bae6 d6bc efee 1e3e c4f1 b7bd
000003b0: a367 46bd 237f 8abd c8c8 8e3d 95b0 f1b9
000003c0: 1222 2dbe b2b5 80bb 8f50 50bd fc4a b13d
000003d0: 7c2b 9cbc 039f af3d 4bff 453d 93f8 4abd
000003e0: 17ec aebc 18d7 133d ac5f 7abc e20c afbd
000003f0: 46fd 443c 5612 36bd 34f5 1e3e 31c9 653d
-0.0017972883 0.1322122 0.013946784 0.04161667 0.046240307 0.17779739 0.044648744 0.028216364
0.009757107 0.020403871 0.004579622 -0.061308578 0.032759465 0.03563739 -0.032340664 0.01677104
-0.09451365 0.009946544 0.030010113 0.019696932 -0.043770693 0.0031422086 -0.027390461 0.06300091
-0.02157323 0.031998843 0.05955353 -0.020011466 0.03011503 0.011600688 0.02216416 0.13896154
-0.06492626 0.12026052 0.02002031 0.027268674 -0.08615961 -0.037558638 -0.054391276 0.018816791
0.00741568 -0.04111884 -0.098042615 0.09260894 0.09098649 0.00063049205 -0.06564855 0.06764173
-0.072224975 -0.08769438 0.028514078 0.031193389 -0.015517858 -0.078616835 -0.10065817 0.040112235
0.039251864 -0.015498226 0.008282151 -0.023003796 -0.0577571 -0.06663331 -0.058514267 -0.008030287
0.011865084 0.022344263 0.035432566 -0.0015734079 0.021972748 -0.016696936 0.023784788 -0.04024609
-0.08798765 -0.041740634 0.027911503 -0.06100121 0.03653367 -0.012232757 -0.041649256 -0.11399668
0.010768214 0.014632666 -0.04967802 0.050193492 -0.040969223 0.0415463 -0.084445484 0.05480281
0.0353032 -0.035868622 0.015042495 -0.03921606 0.05881488 0.05181855 -0.014684756 0.03319769
0.0394642 0.16469896 -0.02778847 0.10620992 0.07978734 0.08996282 0.019503683 0.009693351
-0.066796646 -0.02037606 -0.063128985 -0.15719786 -0.020832554 -0.013465859 0.06164375 0.046630237
-0.030944325 -0.004300747 -0.014323372 0.025654268 0.0354593 -0.10505658 0.038264286 -0.059591517
0.054515343 0.06997715 -0.0526938 -0.011142021 0.11184226 0.022819318 -0.041199796 0.11927035
0.051849 0.0021742368 -0.102115475 -0.05973506 -0.0044597266 0.051643908 0.05064612 0.025820049
-0.086573124 0.00814287 0.0036722536 0.01167159 0.0047630826 0.06721431 -0.044615734 -0.0045186626
0.025202243 -0.051657442 0.059623543 -0.09429365 -0.06992424 0.0964435 -0.011766392 0.09892692
0.051817916 -0.11284047 0.09049145 -0.03497034 0.003549745 -0.002882163 -0.14866777 -0.093437366
0.035947997 0.04975792 -0.022096718 -0.10729707 0.091652155 0.022552313 -0.03981236 0.040743675
-0.08083978 -0.092105284 -0.01718189 -0.05249694 0.008759713 -0.043076992 0.05049998 0.07089972
-0.013734974 -0.0043299873 0.009514448 0.08040215 -0.03597458 -0.030905034 0.13215663 -0.0676789
0.011658146 0.020109888 0.07985293 0.040623933 -0.032836318 -0.024632486 0.03716694 0.06472443
0.018508133 0.03011719 -0.07338068 0.08880022 -0.065252386 -0.08783682 -0.06980059 0.008486646
0.027200036 -0.09692809 -0.057513036 0.006682758 0.07896909 -0.025994252 -0.028735869 -0.002573558
0.031915545 0.008224053 0.03364073 -0.046294313 0.023066223 -0.04879046 0.03050846 0.048150487
0.059970304 -0.025759399 -0.0543634 0.07540339 0.028623143 -0.007328711 -0.031112278 0.043352842
-0.025820244 0.05348836 -0.025704866 0.07129621 0.050318062 -0.06706146 -0.08285772 0.041373543
-0.09926208 -0.026233066 0.15520833 -0.0898166 -0.04843868 -0.06762531 0.0697189 -0.00046098666
-0.16907528 -0.00392791 -0.050858077 0.0865688 -0.019063704 0.08575251 0.04833917 -0.049553465
-0.02135281 0.0360938 -0.015281599 -0.08547379 0.012023276 -0.04445108 0.15523225 0.056100074

text_model.encoder.layers.0.self_attn.v_proj.bias f4 [32]
00000000: 0000 0000 0000 0000 0000 0000 0000 0000
00000010: 0000 0000 0000 0000 0000 0000 0000 0000
00000020: 0000 0000 0000 0000 0000 0000 0000 0000
00000030: 0000 0000 0000 0000 0000 0000 0000 0000
00000040: 0000 0000 0000 0000 0000 0000 0000 0000
00000050: 0000 0000 0000 0000 0000 0000 0000 0000
00000060: 0000 0000 0000 0000 0000 0000 0000 0000
00000070: 0000 0000 0000 0000 0000 0000 0000 0000
0.0 0.0 0.0 0.0 0.0 0.0 0.0 0.0
0.0 0.0 0.0 0.0 0.0 0.0 0.0 0.0
0.0 0.0 0.0 0.0 0.0 0.0 0.0 0.0
0.0 0.0 0.0 0.0 0.0 0.0 0.0 0.0

text_model.encoder.layers.0.self_attn.q_proj.weight f4 [32, 32]
00000000: a8c3 893d 32b1 f6bc 4787 85bd 67b6 023e
00000010: 2fb6 82bc e7cc 9cbd 8ef8 253d 3d07 9e3c
00000020: ac4c a9bc 1747 5dbb 14c7 49bd 34df eebc
00000030: ac29 dbbb 54b7 b73c cd7b 603d d483 f8bd
00000040: 1b7b 4f3d 8057 e8bc 83f7 4abd f81b 61bd
00000050: bdf5 27bc 1211 903d da91 253d 8186 fa3d
00000060: a6e2 ae3c b8a5 fcbd c9ce 8b3d 7be5 b6bc
00000070: b21f 95bd d4a3 343d 5981 463d 9a6d f53c
00000080: 51d6 d4bb ad7c c63b 5cd4 753d 454e c3bc
00000090: 7ceb eb3c 8c5e eabc a5d5 b1bc 487a 6ebd
000000a0: 1835 613c 0ac1 893d 5b9a 5d3d 7e54 ecbc
000000b0: 6953 90bc 082d c13c 2e15 303c 99c3 b7bc
000000c0: 03a1 b6bd 2c64 373d 4849 5dbd 9bc3 aebd
000000d0: 4446 d53c 697d 5f3d 00d0 1ebd cae8 6dbc
000000e0: caab 3c3d 3dc2 b5bc 646c 5cbd d507 233d
000000f0: ab27 81bd fc10 173d 986b 43bc 0d42 a1bc
00000100: a4d7 da3c df2f d23c 7525 fe3d be3e 233d
00000110: 0281 b4bc cd9e cfbc 0199 1d3d 3fc1 e93c
00000120: 5fc6 f33d b92b 78bd 3724 82bd c40e 833d
00000130: f581 1dbc 08cf a3bb a41f d5bc ecfe 483d
00000140: 9194 e03c 5965 09bd 0305 833d ae72 843d
00000150: 6f20 fabc 70c5 23bc 47fb a43d f0c1 30bd
00000160: 6f76 083d b747 ca3d 1c73 85bc 63c9 3b3d
00000170: 3358 83bd d41e 70bc 575b cf3c 3f0d 703d
00000180: 5ae2 853d a39e aabc a128 bd3d c563 dcbc
00000190: 15d4 ff3c c84c 9f3a 717f 253b 4254 56bd
000001a0: a0ee cb3d 4327 373c b045 c9bb 0de6 9b3d
000001b0: d8e2 423b 17ad 1a3e b76a f3bc 35c1 573c
000001c0: e897 c03a 82f2 cb3c f18a 56bd 7523 ddbc
000001d0: d791 91bd be27 983b 13c5 683d 1049 2cbd
000001e0: f4f8 2c3c 6aa2 043d 4800 2c3d dd60 313c
000001f0: 4834 0cbd c4a0 0abc 5323 f1bc ded0 cabc
00000200: b283 8cbd 2e61 fe3c f7a5 bf3d fa2d f6bb
00000210: 38aa 5ebd 887a d43d 9d2a 42bd 996c b1bc
00000220: 1070 333c a663 ab3b a273 b23c a10d a03c
00000230: 4197 863d 61fb a03d 3f0f 373d 62ed 0dbd
00000240: 0e2d ac3d 3c1e f83c 031d 0bbd 2c79 bfbd
00000250: d777 e93c b844 9a3d b56e 1ebd c656 6dbc
00000260: 3eb0 02bd c1ee c0bd 4b33 cfbd 2bcb 3dbd
00000270: 0767 2dbd 6163 243d a8a3 8ebd a32b 15bc
00000280: 516e 573d dfa3 313d cc27 443d c0d7 f6bc
00000290: 96b8 1dbd 14e6 20bd 8f35 bb3d 99f5 9f3b
000002a0: 5e80 41bd 9eab 5b3d d824 9f3c bb3f 6a3d
000002b0: 279a fdbd d0b3 243c 780d ea3d ccf1 563d
000002c0: 8170 563c 0e24 01bd c0d7 a23d 5ffc b8bd
000002d0: c359 363d 9cd3 cbbd 21e8 b9bc 130a b1bd
000002e0: 6876 0bbd 7684 d5bc 65c8 523d 8ff9 9abc
000002f0: 7092 793d 39b5 23bc 7d13 143b 26c7 16bd
00000300: c4f7 6bbd ac7b efbc d97b c83c a4ca 3b3d
00000310: 46f1 36bb 1afa 203d e838 d33c c132 f2bb
00000320: caad 2b3e 6057 5c3d 3fa6 863c 1b90 9bba
00000330: 160c 89bc 314b 0ebd 6f73 7d3b ca0d 05bd
00000340: f619 8fbc d437 d1bc 4ea8 69bc 7a97 e4bd
00000350: 074b 423c 4e1c d03d a705 9b3b 4eb3 403d
00000360: 27c3 6d3d 6fcd 8dbc 42fc 1bbe fde9 383d
00000370: e206 20bd 92cd 86bd 0e2b af3c d43a efbc
00000380: 70c3 15bd 8593 ccbc 885a 1cbe 303f 8dbd
00000390: ce56 6e3d f714 203d 67f3 e1bc 3955 8a3d
000003a0: ecf0 68bc 10d6 5fbd bd40 d93d 9930 bebc
000003b0: c6f3 81bc fca6 253d 815b 39bd d035 a8bc
000003c0: c0e9 963c 9772 923d 7d24 ad3c ed7b 99bc
000003d0: 0e47 593d 65e5 9739 7a0a 173c ac5e ad3c
000003e0: 36c6 563b aee6 2fbb c430 40bc 5108 8ebd
000003f0: 9996 aebd 31bd ec3a 39ee 99bb 3e7c c43c
0.067267716 -0.03011379 -0.06519943 0.12764893 -0.015956013 -0.076562695 0.040520243 0.01929056
-0.020666443 -0.0033764297 -0.04926212 -0.029159166 -0.0066883173 0.022426285 0.054805566 -0.12134519
0.050654512 -0.028362036 -0.04955245 -0.054958314 -0.01025146 0.07034506 0.040422298 0.12232686
0.021348309 -0.12336296 0.068265505 -0.022326222 -0.07281436 0.04410155 0.0484632 0.029959489
-0.006495275 0.006057343 0.060016975 -0.023841033 0.028798811 -0.028609537 -0.021708319 -0.058222085
0.013745569 0.067262724 0.054102283 -0.028848883 -0.017617898 0.023581043 0.010747237 -0.022432135
-0.08917429 0.044773266 -0.054024965 -0.085334025 0.026034482 0.05456296 -0.038772583 -0.014520833
0.04606227 -0.022187347 -0.053814307 0.03980239 -0.06306394 0.036881432 -0.011927508 -0.019684816
0.026714154 0.025657592 0.12409488 0.039854757 -0.022034172 -0.025344277 0.038475994 0.02853453
0.11903071 -0.060588572 -0.06354564 0.06399301 -0.009613504 -0.0049990453 -0.026016064 0.049071237
0.027414592 -0.03354392 0.0639744 0.06467186 -0.030533044 -0.009995803 0.0805574 -0.043153703
0.033316072 0.0987696 -0.01629024 0.045846354 -0.06413307 -0.0146557875 0.025312109 0.058606382
0.06537314 -0.020827597 0.09236265 -0.026903043 0.031229058 0.001215362 0.0025252963 -0.05232645
0.099576235 0.011178794 -0.0061423406 0.07612238 0.002973726 0.15105091 -0.029713972 0.013168623
0.0014693709 0.02489591 -0.0523786 -0.026994446 -0.07107895 0.0046434095 0.05682857 -0.042061865
0.010557402 0.032381453 0.041992456 0.010826317 -0.034229547 -0.008461181 -0.02943579 -0.024757799
-0.068610564 0.031052198 0.09357827 -0.007512805 -0.054361552 0.103749335 -0.04740392 -0.021658229
0.010952011 0.005230385 0.021783654 0.019537749 0.06571818 0.07860447 0.044692274 -0.034650214
0.08407031 0.030287854 -0.033963215 -0.093492836 0.028499527 0.07532638 -0.038679797 -0.01448602
-0.03190636 -0.09420539 -0.10117205 -0.046336334 -0.042334583 0.040133838 -0.06964809 -0.009104642
0.05259544 0.04336917 0.047889516 -0.030132174 -0.038506113 -0.03928192 0.09141075 0.0048815724
-0.04724156 0.053630464 0.019426748 0.057189684 -0.12382918 0.010052636 0.1142835 0.05247669
0.013088346 -0.031528525 0.07951307 -0.09032511 0.044519197 -0.09952471 -0.022693696 -0.086445
-0.034048468 -0.026064139 0.051460642 -0.018917827 0.06093067 -0.009991937 0.0022594624 -0.036811016
-0.057609335 -0.029233776 0.024473118 0.04584755 -0.0027914806 0.039301015 0.025783971 -0.0073913042
0.16765514 0.053794265 0.016436694 -0.0011868508 -0.016729396 -0.034739677 0.003867354 -0.032483853
-0.017468434 -0.025539316 -0.014261318 -0.11161704 0.011858708 0.10161649 0.0047308984 0.047046
0.05804744 -0.017309872 -0.15232947 0.045145024 -0.039069064 -0.06582178 0.021382835 -0.029202856
-0.036563337 -0.024972687 -0.1526891 -0.06896818 0.058188252 0.039082494 -0.027581884 0.06754536
-0.0142175965 -0.054647505 0.10608051 -0.023216533 -0.01586331 0.04044245 -0.04525328 -0.020533472
0.018422008 0.071507625 0.021135563 -0.01873585 0.05304628 0.00028971877 0.009218806 0.021163307
0.0032771952 -0.0026840377 -0.011730377 -0.0693518 -0.08524818 0.0018061755 -0.004697588 0.023985025

text_model.encoder.layers.0.self_attn.q_proj.bias f4 [32]
00000000: 0000 0000 0000 0000 0000 0000 0000 0000
00000010: 0000 0000 0000 0000 0000 0000 0000 0000
00000020: 0000 0000 0000 0000 0000 0000 0000 0000
00000030: 0000 0000 0000 0000 0000 0000 0000 0000
00000040: 0000 0000 0000 0000 0000 0000 0000 0000
00000050: 0000 0000 0000 0000 0000 0000 0000 0000
00000060: 0000 0000 0000 0000 0000 0000 0000 0000
00000070: 0000 0000 0000 0000 0000 0000 0000 0000
0.0 0.0 0.0 0.0 0.0 0.0 0.0 0.0
0.0 0.0 0.0 0.0 0.0 0.0 0.0 0.0
0.0 0.0 0.0 0.0 0.0 0.0 0.0 0.0
0.0 0.0 0.0 0.0 0.0 0.0 0.0 0.0

text_model.encoder.layers.0.self_attn.out_proj.weight f4 [32, 32]
00000000: d370 173e 157e 533e 774f 893c 09ec 10be
00000010: 5c59 a33d 8a1a be3d 1dc7 9c3e 12bc cfbd
00000020: 3c49 37bc f2db 3dbd 5986 82bd f3da bd3c
00000030: 01f4 d03d 315e a9be 0816 5ebd a113 01be
00000040: 4d84 5fbd a24c e13d 8c0b a8be d998 f8bd
00000050: db5e 013e 8f48 7d3d 454e fdbd 6015 383d
00000060: f2c6 133d d494 cb3e cd9d 73bc 004e 333d
00000070: 042b e8bd c808 203d b259 b2bd 756b 063e
00000080: 6e71 0bbd 1d5c 9e3e 99f2 4b3e 341c 0fbd
00000090: a0ea a63d 158c 8e3d 805a e0bd c741 9dbd
000000a0: 2c21 b1bd 1ab2 5f3e 4d42 c9bd 8ef9 a4bd
000000b0: e1a0 743d 99fc 003d 2e48 dbbd 4c81 0d3e
000000c0: d9c9 cf3d ff24 9f3e 1ce7 24bd b426 f3bd
000000d0: 4557 b3be 3cc4 763e b485 2bbe 5dd0 aebc
000000e0: 4a66 05be c632 8a3e 18d3 82bd 75b1 4fbe
000000f0: 5cf1 a23e 37a1 1cbe 2659 663e ba96 ed3d
00000100: 1780 c43d 70fa f63d e0e1 61bc 69e0 943d
00000110: 12d0 b8bb a6d9 143e 76c7 afbd ed9f 043e
00000120: 2255 333c 1b53 203e eedd f93c 2bbb 1f3e
00000130: ce39 c2bd fc27 d83d 5641 bf3d b402 193d
00000140: 6504 66bd 9d5e 2a3d 77b0 943d efc7 163e
00000150: 4c69 a43d a6c3 b43d 19e5 fa3b 1701 18be
00000160: a2df 10be 37e4 813e 6faf 1c3e e0b6 b63d
00000170: 19d5 5abe a3e5 593d ad73 2b3e 96b7 5e3e
00000180: a47b 9cbe 6e49 b7bd 304b c0be 1ca2 47be
00000190: 4825 c4bd 5ea2 883e ae88 b43d d767 ce3c
000001a0: 6a44 55be 0aa7 993e 5886 a1bc 6af0 703e
000001b0: c7b5 bfbd 973f c5bc bf4c 053e 60ae c2bd
000001c0: 5bc4 f9bd e1d9 bebe 7560 c1bd b54f 973e
000001d0: d9eb dcbe e86b 60be 5789 9d3d 1fc8 57be
000001e0: eac6 bfbd b5c1 453e de0a 4cbd 7275 b8bd
000001f0: d89a 15be 13de a7bd 2811 24bd 5f97 4e3d
00000200: 3f1f f9bc b6f9 c2bd 2ef3 b1bd cf3a 58be
00000210: 9b5d 753e 3f73 973d 4fec 90be 32cb a03d
00000220: 9cdc 01be 002d 423e 44f4 f3bd 114f 9ebd
00000230: 432a f33d 3dc2 073e d91e 023e 6994 3f3d
00000240: 35d3 92bc 3661 14bd 0098 f33d 4ba5 05be
00000250: 2ed1 05be fc9d 04be 922d 26be d066 9fbd
00000260: a8c0 f13c 816f 663e aab1 cabd fe9f 0b3e
00000270: a048 473e c439 003f e28f 89bd 9771 c6bc
00000280: 64b4 9b3d 5d11 e43d 19d7 b93d 8636 7fbe
00000290: 4ce5 30bd 9978 8bbb 5e0f a93d 55ec 593e
000002a0: 4e71 6dbd f92c 22be d8b3 0cbe 7db8 07be
000002b0: 1529 aebc 677b a6be e50d 0dbf 1caf bcbe
000002c0: 3d81 1dbe 8433 a9bd b794 63bd 2714 2e3d
000002d0: 1264 733e b358 cebe 156c 583e 196d c5bb
000002e0: 331a a9be f15c 1c3e 8360 67be 1df3 c93c
000002f0: 704c 7ebd 5ca3 16be 8193 a63c 2a60 f03d
00000300: bc8c 11be e9be 43be 5a59 fb3d 6ba8 61bd
00000310: d2f7 cd3d 6f54 fc3c 0fb3 e4bc 2da9 7a3c
00000320: 3ad2 61be 51b9 78be ffff 2cbe 01cf 56bd
00000330: 1d1a fb3d 1972 96bd d557 53be 0d8e 14be
00000340: 130d 733e 638a 97bc 4fca d5bd 1baa 06bc
00000350: 200a 5d3e 30f6 193c 3e60 eb3c 0473 cf3d
00000360: b0e9 b13c 1d68 07bd 880a 443e b0d3 ff3d
00000370: f583 87be eae8 6e3e 346d 783e 5e80 a63d
00000380: 8bc1 2cbe 4de7 233e 8f6f 5fbe d3ba 4abe
00000390: a676 373e 50f0 21be 6bc4 af3e 5944 293e
000003a0: 9d14 203d e588 d63d e157 9b3c 5ff2 3abe
000003b0: 1ef9 613c c8ae 873e 345b 0a3e 5928 1f3e
000003c0: 826d a3bd a0c2 6ebe f38c 323e 6806 c6be
000003d0: b3a5 a1bd 556e adbe 2e6f 8c3d 2b83 083e
000003e0: b0da 023f ce91 f0be fa6a aabc dba8 2a3c
000003f0: dc89 673e 23ab e3bd e463 39be f3ba 9e3d
0.14789133 0.20653565 0.016761525 -0.1415254 0.07976028 0.09282406 0.3062066 -0.101432934
-0.011186894 -0.046352334 -0.06373281 0.023175692 0.1020279 -0.33079675 -0.05422023 -0.12605144
-0.05456953 0.11000945 -0.3282131 -0.121385284 0.1263384 0.061836775 -0.12368444 0.04494226
0.0360784 0.39761984 -0.014869166 0.04377556 -0.113363296 0.039070874 -0.08708514 0.13126929
-0.03404372 0.30929652 0.19916762 -0.034939006 0.0815022 0.06960312 -0.109547615 -0.07678562
-0.08648905 0.21845284 -0.09827099 -0.08055411 0.05972374 0.031490896 -0.107071266 0.13818854
0.10145921 0.31082913 -0.040259466 -0.118726164 -0.3502752 0.24098295 -0.16750222 -0.02133959
-0.13027301 0.26991862 -0.06387919 -0.20282538 0.31824768 -0.15295874 0.22494945 0.116010144
0.09594744 0.12059486 -0.013786763 0.07269365 -0.0056400383 0.14536151 -0.08582966 0.12951632
0.01094559 0.15656702 0.030501332 0.15598743 -0.094836816 0.105545014 0.09338634 0.037356094
-0.056156535 0.041594137 0.072602205 0.14724706 0.08027896 0.088263795 0.007656705 -0.14844166
-0.14147809 0.25369427 0.15301298 0.089215994 -0.21370353 0.053197514 0.16743346 0.2174972
-0.3056308 -0.089495525 -0.37557364 -0.19495434 -0.09577423 0.26686376 0.08815132 0.025196
-0.20826879 0.30010253 -0.01971738 0.2352921 -0.09360843 -0.024078174 0.13017558 -0.09505916
-0.12195655 -0.37275603 -0.09442226 0.29553 -0.43148687 -0.21916163 0.07692211 -0.21072434
-0.09364112 0.19312175 -0.04981505 -0.09006776 -0.1460985 -0.08196654 -0.040055424 0.050437327
-0.030410407 -0.09520285 -0.08688961 -0.21116184 0.23961489 0.07395028 -0.2830529 0.078512564
-0.12681812 0.18962479 -0.11911824 -0.077299245 0.11873295 0.1325769 0.1270708 0.046772394
-0.017922977 -0.03622552 0.11894226 -0.13051336 -0.13068077 -0.12950891 -0.16228321 -0.07783282
0.029510811 0.22503473 -0.09897168 0.13635251 0.19461298 0.50088143 -0.067168966 -0.024224086
0.07602766 0.11136124 0.0907423 -0.24923143 -0.043187425 -0.0042563197 0.08254884 0.2128156
-0.057969384 -0.15837468 -0.1374048 -0.1325397 -0.021259824 -0.32516024 -0.55099326 -0.36852348
-0.15381332 -0.08261779 -0.055561747 0.042499688 0.23768643 -0.40302047 0.2113498 -0.0060249683
-0.330278 0.1526983 -0.2259541 0.024652058 -0.062084615 -0.14710754 0.020334007 0.11737092
-0.14213842 -0.19115795 0.12272902 -0.055092257 0.100570336 0.03080198 -0.027917413 0.015299124
-0.22052851 -0.24289443 -0.1689453 -0.052443508 0.1226084 -0.07345981 -0.20638974 -0.14507313
0.23735456 -0.018498605 -0.10438978 -0.008219267 0.21585894 0.009397075 0.028732415 0.10129359
0.021717876 -0.033058275 0.19144642 0.12491548 -0.26467863 0.23331037 0.24260408 0.08129953
-0.16870706 0.16006203 -0.218199 -0.1979783 0.17916355 -0.15814328 0.34329543 0.16529979
0.03908216 0.10475329 0.018962802 -0.1825652 0.013792304 0.26500535 0.13511354 0.15542735
-0.07979871 -0.23316431 0.1743658 -0.38676763 -0.07892933 -0.3387324 0.06857143 0.13331287
0.5111494 -0.4698624 -0.020802964 0.010416235 0.22611183 -0.11116626 -0.18104511 0.077505015

text_model.encoder.layers.0.self_attn.out_proj.bias f4 [32]
00000000: 0000 0000 0000 0000 0000 0000 0000 0000
00000010: 0000 0000 0000 0000 0000 0000 0000 0000
00000020: 0000 0000 0000 0000 0000 0000 0000 0000
00000030: 0000 0000 0000 0000 0000 0000 0000 0000
00000040: 0000 0000 0000 0000 0000 0000 0000 0000
00000050: 0000 0000 0000 0000 0000 0000 0000 0000
00000060: 0000 0000 0000 0000 0000 0000 0000 0000
00000070: 0000 0000 0000 0000 0000 0000 0000 0000
0.0 0.0 0.0 0.0 0.0 0.0 0.0 0.0
0.0 0.0 0.0 0.0 0.0 0.0 0.0 0.0
0.0 0.0 0.0 0.0 0.0 0.0 0.0 0.0
0.0 0.0 0.0 0.0 0.0 0.0 0.0 0.0

text_model.encoder.layers.0.layer_norm1.weight f4 [32]
00000000: 0000 803f 0000 803f 0000 803f 0000 803f
00000010: 0000 803f 0000 803f 0000 803f 0000 803f
00000020: 0000 803f 0000 803f 0000 803f 0000 803f
00000030: 0000 803f 0000 803f 0000 803f 0000 803f
00000040: 0000 803f 0000 803f 0000 803f 0000 803f
00000050: 0000 803f 0000 803f 0000 803f 0000 803f
00000060: 0000 803f 0000 803f 0000 803f 0000 803f
00000070: 0000 803f 0000 803f 0000 803f 0000 803f
1.0 1.0 1.0 1.0 1.0 1.0 1.0 1.0
1.0 1.0 1.0 1.0 1.0 1.0 1.0 1.0
1.0 1.0 1.0 1.0 1.0 1.0 1.0 1.0
1.0 1.0 1.0 1.0 1.0 1.0 1.0 1.0

text_model.encoder.layers.0.layer_norm1.bias f4 [32]
00000000: 0000 0000 0000 0000 0000 0000 0000 0000
00000010: 0000 0000 0000 0000 0000 0000 0000 0000
00000020: 0000 0000 0000 0000 0000 0000 0000 0000
00000030: 0000 0000 0000 0000 0000 0000 0000 0000
00000040: 0000 0000 0000 0000 0000 0000 0000 0000
00000050: 0000 0000 0000 0000 0000 0000 0000 0000
00000060: 0000 0000 0000 0000 0000 0000 0000 0000
00000070: 0000 0000 0000 0000 0000 0000 0000 0000
0.0 0.0 0.0 0.0 0.0 0.0 0.0 0.0
0.0 0.0 0.0 0.0 0.0 0.0 0.0 0.0
0.0 0.0 0.0 0.0 0.0 0.0 0.0 0.0
0.0 0.0 0.0 0.0 0.0 0.0 0.0 0.0

text_model.encoder.layers.0.mlp.fc1.weight f4 [37, 32]
00000000: 5f71 27bd 0d56 5b3d f18e 663c bbde 863e
00000010: 3a50 a6bd 8acc 4fbe 6e3a a2bc 8b5f 9fbd
00000020: c8c7 133e 407b ed3d 00f4 f2ba 8e6e d63b
00000030: 1427 c5ba 6fd0 243d d692 433d b36b 213e
00000040: 39ee a73d 744b ea3d f77d 133e 5805 7b3c
00000050: e2c2 babd ff30 37be 1c23 43be eda3 07bd
00000060: d427 05be 8dcb d7bb b402 293e 9abd 413b
00000070: 63da ee3d 1d69 d43b a79d d6bd 98a4 40be
00000080: 5dae 643e 6370 e2bb b993 233d ff98 c3bd
00000090: 3c3c 573d fa65 40be 0df4 b1bd 237a a13c
000000a0: 171e e2bd 8c51 1abc da7a bbbd 3372 703d
000000b0: 5e6a 2d3c 9225 c53d 5bc7 68be 8815 873d
000000c0: db0e ddbd 6c69 5abd 1115 0e3e 6e9d 083e
000000d0: 6222 a43d fcd5 4f3e 7bb4 063d 3160 1b3e
000000e0: 90e5 bb3d 698d d83c cc6f 133c 0753 a03e
000000f0: 5653 2bbd 5713 933d 987e b0bc 47d9 153d
00000100: bcd5 713e 8ebe b3bd 267a f1bd a58b 45be
00000110: bd79 fa3d 911a 3f3d 0e63 e9bd bf19 673e
00000120: 49c7 18be a073 b1bc dd36 3dbd 3474 8fbd
00000130: 8e70 c23c 6ad3 273d fb89 10bd 705f e5bd
00000140: f1af 01be ed8d bbbd 4a18 563d 90e5 3dbe
00000150: 1d66 193d bf89 74bd 9b70 db3b d2c1 90bd
00000160: 14b6 92bc c573 a53d 7e1e 8b3d cf36 9cbd
00000170: 3f3b 99bd 31e9 bd3d 1a69 bb3c 619b 0cbe
00000180: 37cb 4b3d f0e4 f83d 6da2 d13c ea7d a2bc
00000190: 26be a83d da7f 173e 82b5 1f3e 264d aa3c
000001a0: b664 ca3d c295 193d 54ef 1c3e 2c11 2dbe
000001b0: e58b 49be cc41 773d 0a35 313b 25be 8dbd
000001c0: a384 893e b4b6 ea3d b110 fcbc f647 5bbd
000001d0: 343d 0ebd 33c4 623e b674 0c3a 2dcb a33b
000001e0: 65d7 933d 7425 8bbc 7c90 1dbe aa37 893e
000001f0: f392 8cbd ab77 b53d 62b3 b73d ade3 a03d
00000200: b3be 293e f8b3 bc3c 66cd 4abe a723 813d
00000210: 9451 0a3d 3b98 afbd 42de 0b3d 8f3a 143e
00000220: 0d60 d3bd 10c2 a8bd f438 323c 1609 713d
00000230: b2a1 b4bd 618b e83d 7e77 3abe 321c 81be
00000240: 8374 0e3e f28d c1bd 2bd5 e3bd 450f 98bc
00000250: d49a 3b3e 33a8 db3d afab 87bd bac0 89be
00000260: 6363 aabd a241 af3c efce bfbe ba71 80bd
00000270: 4f08 0cbd 61f2 1dbe c3ea 413e c3de 653d
00000280: 64c1 7f3d 3754 3fbe f73c 5c3d f41d 23be
00000290: 7cf1 223e b8c0 283c d038 9e3b a619 ea3c
000002a0: 90d7 f9bd cc85 cf3d e3f1 0ebd 7dee 96bd
000002b0: 2057 3f3e 34f7 fabc 8388 093e bd3e 323d
000002c0: f47b 073d 982f 03be 47b8 233e e637 40be
000002d0: df1b 08bc d0a9 9cbb 9fa5 933d 21b9 a6bd
000002e0: cfe0 abbe 6c16 84bc e61b 96bd 4c99 9ebc
000002f0: 3997 04bd de14 e83d 1953 bfbc ff00 26be
00000300: 1c26 3bbe 4a91 2e3d d5f1 e9bd 547b 803d
00000310: ca14 d63a 0b19 92bd b4a8 81bd 1bf0 31be
00000320: ff6a 503d c85d 2dbe 8b5d c4bc c2a8 a03c
00000330: cb1e 043e e47d 5f3e d75e 163e 0073 de3c
00000340: 95c4 80bd 8c3d 7f3c 8a2e 03be fb68 85bc
00000350: b466 8b3d b73b 243d 8a92 193c 9407 4ebe
00000360: d048 bbbd 1407 22bc 8f3a 0a3e ac28 ec3d
00000370: d611 efbd a558 9e3c 8e20 b3be 3a46 8a3e
00000380: 466f c9bb 1554 ed3d ef74 863d fce5 353e
00000390: 27d9 4a3c dbdb 443d 6116 adbc fe84 903e
000003a0: ffd1 8cbc da43 a2bd 5f97 d33d a3bc ae3d
000003b0: ae15 4dbd fae6 37be a2ae 293e e36a 4dbe
000003c0: 422f 133b be38 703e a58f 37b9 a228 5bbd
000003d0: f763 c13d 59bc 8dbd d705 2f3e 024b a63d
000003e0: 44d5 6bbe 8641 3bbc ff95 5a3d ccf1 db3d
000003f0: 29ac f9bc 828b 583d 76bb 623c b600 07bd
-0.040879603 0.05354886 0.014072166 0.26341805 -0.08120771 -0.20292869 -0.019803252 -0.07781895
0.14431679 0.11595774 -0.0018535852 0.006543941 -0.0015041553 0.04023784 0.047747456 0.1576374
0.08199734 0.11440173 0.1440352 0.015321098 -0.09119202 -0.17889784 -0.19056362 -0.033115316
-0.13003474 -0.0065855444 0.16504937 0.0029562474 0.11662748 0.006482257 -0.104792885 -0.18812788
0.2233214 -0.00691037 0.0399358 -0.09550666 0.05254768 -0.18788901 -0.08689127 0.01971156
-0.110408954 -0.009418856 -0.091542915 0.05870266 0.010584442 0.096263066 -0.22732298 0.06595904
-0.10793849 -0.053323194 0.13875224 0.13341305 0.080143705 0.20296472 0.032886963 0.15173413
0.09174645 0.026434617 0.008998822 0.31313345 -0.041827522 0.07181423 -0.02154474 0.036584165
0.2361669 -0.0877658 -0.11790876 -0.19291551 0.12230251 0.046656195 -0.11395846 0.22568415
-0.14919771 -0.02166158 -0.0461949 -0.07004586 0.02373531 0.040973105 -0.03528784 -0.11199844
-0.12664773 -0.091579296 0.052269258 -0.18544602 0.0374509 -0.059701677 0.006696773 -0.07068218
-0.017909087 0.08078722 0.06792925 -0.076276414 -0.074820034 0.09272993 0.022877265 -0.13731147
0.049754348 0.12153041 0.025590146 -0.019835431 0.08239393 0.14794865 0.15596583 0.02078874
0.0988249 0.037496336 0.15325671 -0.16901082 -0.19682272 0.060365483 0.002703967 -0.06921033
0.26859006 0.11460629 -0.030769678 -0.053535424 -0.034726337 0.22145157 0.00053579675 0.0049985857
0.072188176 -0.016985632 -0.15387148 0.2680028 -0.06863966 0.088607155 0.089697614 0.07855926
0.16576652 0.023035035 -0.19804916 0.06305628 0.033769205 -0.085739575 0.03414751 0.14475463
-0.103210546 -0.082401395 0.0108778365 0.058846556 -0.088199034 0.113547094 -0.18209645 -0.25216824
0.13911633 -0.09450902 -0.11124643 -0.018561969 0.18320781 0.10725441 -0.06624543 -0.2690485
-0.08319738 0.0213936 -0.37462565 -0.062716916 -0.03418761 -0.15424491 0.1893721 0.056120645
0.06244029 -0.18684469 0.053769078 -0.15929395 0.15912431 0.010299854 0.00482855 0.028576683
-0.121993184 0.101329416 -0.03489865 -0.07369707 0.1868558 -0.030635454 0.13430981 0.043516863
0.033077195 -0.12811124 0.15988265 -0.18771324 -0.008307426 -0.0047809854 0.07209324 -0.08140779
-0.33569953 -0.016123973 -0.0732954 -0.019360207 -0.03237078 0.11332105 -0.023355054 -0.16211317
-0.18276256 0.042619027 -0.11423079 0.06273523 0.00163331 -0.07133683 -0.06331006 -0.17376749
0.05088329 -0.16930306 -0.023970386 0.01961172 0.12902372 0.21825367 0.14684616 0.027154446
-0.06287495 0.015578639 -0.12810722 -0.01628541 0.068066984 0.04009601 0.009373317 -0.20120078
-0.09144747 -0.009889383 0.13498901 0.11531195 -0.11673324 0.019329378 -0.34985775 0.27006704
-0.006147298 0.11588303 0.06565272 0.17763513 0.012380875 0.048061233 -0.021128835 0.28226465
-0.017189978 -0.07923098 0.10331606 0.08532073 -0.050069503 -0.17959204 0.16570523 -0.20060305
0.0022458588 0.23459145 -0.00017505752 -0.053505547 0.09442895 -0.0692069 0.17092071 0.08119775
-0.23030573 -0.011429196 0.053365704 0.107394785 -0.0304776 0.05286742 0.0138386395 -0.032959662

text_model.encoder.layers.0.mlp.fc1.bias f4 [37]
00000000: 0000 0000 0000 0000 0000 0000 0000 0000
00000010: 0000 0000 0000 0000 0000 0000 0000 0000
00000020: 0000 0000 0000 0000 0000 0000 0000 0000
00000030: 0000 0000 0000 0000 0000 0000 0000 0000
00000040: 0000 0000 0000 0000 0000 0000 0000 0000
00000050: 0000 0000 0000 0000 0000 0000 0000 0000
00000060: 0000 0000 0000 0000 0000 0000 0000 0000
00000070: 0000 0000 0000 0000 0000 0000 0000 0000
00000080: 0000 0000 0000 0000 0000 0000 0000 0000
00000090: 0000 0000
0.0 0.0 0.0 0.0 0.0 0.0 0.0 0.0
0.0 0.0 0.0 0.0 0.0 0.0 0.0 0.0
0.0 0.0 0.0 0.0 0.0 0.0 0.0 0.0
0.0 0.0 0.0 0.0 0.0 0.0 0.0 0.0
0.0 0.0 0.0 0.0 0.0
