test/assets/hf-internal-testing_unidiffuser-test-v1/image_encoder/pytorch_model.bin (torch, 205628 bytes, 88 tensors)

vision_model.embeddings.class_embedding f4 [32]
00000000: 828f fcbd c8c1 a2bd ab19 31be d567 00be
00000010: 7998 59be b1c8 debe 0b13 fc3c ec1b 8fbc
00000020: 3617 a33e 5f3d 82be dfdf 5ebe 8b58 773e
00000030: 9ded 56be f91f 013e f22b 5d3e 0ece 60be
00000040: 1db8 5c3e 0449 05be 618d fe3d d9b4 9a3e
00000050: 5bc5 643c 3ae4 c1bd 4007 263e 20c1 193e
00000060: 0875 593e be39 7e3c bc93 c93d 4fcf c7bd
00000070: eb7a 7a3e 4ae0 833d 1cc8 d83d 92d6 9d3e
-0.123320594 -0.07947117 -0.17294948 -0.12539609 -0.2124957 -0.4351249 0.0307708 -0.017469369
0.31853646 -0.25437447 -0.21765088 0.2415487 -0.2098908 0.12609853 0.21598795 -0.21953604
0.21554609 -0.13016135 0.1242931 0.302161 0.013963069 -0.09467359 0.16213703 0.15015078
0.2123605 0.0155166965 0.09842631 -0.09756338 0.24460952 0.06439264 0.10585043 0.30827767

vision_model.embeddings.patch_embedding.weight f4 [32, 3, 2, 2]
00000000: 78e2 c23c d8cd 44bc 4734 3d3c 3b4d 58bc
00000010: 7923 3b3c b0f1 f6bc b53d b23b c6da f8b8
00000020: 5752 d63c f3fb f43c ace9 143c a952 d33c
00000030: 7408 0f3c 2f39 bf3c 19be f9ba 956a de3b
00000040: 5749 05ba b04d 483b 7284 febb 3e08 653c
00000050: 7da1 f13c 675e 1dbd 4da0 413a 7f61 82bc
00000060: fa99 20bc a3de 79bc 40fa acbc 242a 22bc
00000070: af42 403d 5741 82bc 7d3f 20bc 0b9e 20bc
00000080: fa26 9f3b a42e 193d 2fd7 4ebc 751a 73bc
00000090: 8eed 913b 7dc6 583d c452 073b 2217 db39
000000a0: 6f75 22bc 9003 fc3c 77d6 67bc c5aa 65bc
000000b0: ae32 0ebd 5f7f 8a3b eeda 59bc 4202 47bb
000000c0: b5d7 3fb9 a182 73bc 0cc3 cdbc e2e1 a03c
000000d0: c5aa 7e3c 4046 0f3d 796d 55bd a2a5 403c
000000e0: 36a7 81bb 3015 eb3c 8e72 113d 4588 c33c
000000f0: 3e81 313c c669 843a 3057 30bd 53fc 95b8
00000100: 7f4e 143c 703c b7bc e436 d03b 3d7e f8bc
00000110: e64a 403c 2c40 04bc 820c 4fbc bd3c c0bb
00000120: dff3 82bc c719 a5bc 5888 d53c 1857 5139
00000130: 82c0 0bbd 2a23 853c b465 fe3c 2b9f 37bd
00000140: 9cc2 4f3c 9560 7b3c 5673 033d b36c 44bc
00000150: c636 ce3c 493f d7bc 151c bebb 5b05 c53c
00000160: 62a1 213d 3827 463a 788d 74bc 79fc 1f3d
00000170: b646 1f3d eec0 113d 13c7 24bb 9bb9 3d3c
00000180: e852 0fbd 10bb cabb 578d 15bc 2287 bd3c
00000190: cfe2 46bb c05c 51bb fe6e b43b 8165 3fbb
000001a0: a2dd febb 584d 4e3d 6165 a6bc b226 d93b
000001b0: cbeb 4ebb 133e 79bb 8ea5 25ba 2cea 663d
000001c0: f94e 86bc 6cf0 6b3a 8bb8 01bd c679 8f3d
000001d0: 548e 30bc 6445 103c ea93 623c 62a3 18bd
000001e0: cae6 003d d0cd 19bc 40cc 173b 5bbd be3c
000001f0: 4e27 68bc 2ea4 52ba ef75 81bc eeac 293d
00000200: 7317 bebc af26 8cbc c4bb 1cbb be4a a23c
00000210: 4ccd 0d3c 5706 983c 5e3e 65bc 3416 3ebc
00000220: 2d04 9bbc f35c 853c b345 443c eeec 6cbb
00000230: 7c3f 6f3b cda2 0b3d add5 a0bb 5b2c 773c
00000240: 986f 0a3d 20e5 073c 10a1 4dbc 418d aebc
00000250: 0296 88bc b91d f53c 6f0e bc3b 8eae 12bc
00000260: 3757 8f3c fd4f 153d a0de fdbc 0160 d93a
00000270: 1807 ae3c d299 523b cff4 a63b bdd9 863c
00000280: 6786 563c f368 47bc 0dd3 913c fca7 b73c
00000290: fa5f 913c aeab f3bc 934b 7bbb fb0d c5bb
000002a0: 8700 b1bb 03fa 7d3b 1724 28bc 61bc dcbb
000002b0: 1d31 c7bc 6298 1bbc fc6a e83c 27d3 e93c
000002c0: 5aa1 82bc a043 a43c 773f b4bc 6155 6c3d
000002d0: df5d 0cbd 8da2 92bc 6cda 9dbc 478d 273c
000002e0: 9c54 b83c 6a53 143c b977 4e38 366e 2e3a
000002f0: 7338 603c bb55 0abd c111 6ebc 583b c53c
00000300: 8e13 283c bbca 083d 5c2c c4bc 4ba4 813b
00000310: 72af 863c 1e45 623c 1d9c c1bb e2d0 9abc
00000320: ef2e 133c 1ee2 0ebb 2222 bb3b 7312 513c
00000330: ea73 f7bc 22b7 8cbc 1572 f8bc d490 533c
00000340: 97a0 94bb 8284 58bc 7e7a d8bc 0653 d8bb
00000350: 0520 f5bb db33 bdbb 9318 6a3b daa6 21bc
00000360: 32a6 73bc 812c d53c 9673 80bb 9e53 1a3b
00000370: 1d7d 033d 01cd 0e3d 260a 0abd 6148 f03b
00000380: 865b 6a3b a2cf 51bc dc01 13bd 075c b23b
00000390: 94d7 f3bc 5dc9 693c 6bad 7cbc 92fb b83a
000003a0: 16a0 0ebd 8ea2 f5bc 495a 8a3c 19a3 65bc
000003b0: 91fe 893b 54c0 fcbc 5f40 853b e9c9 72bc
000003c0: d3a5 d73c bb00 0d3c 2026 603d caf9 1abd
000003d0: c43d 9b3c c936 67bc 262d 15bd 3767 27bc
000003e0: 5fdf 88bc 6011 9d3b 4e45 303c 8508 ac3c
000003f0: 503b d33c ea6c e3bc 3774 1abc e1c0 82bc
0.02378963 -0.012011968 0.011548108 -0.013202007 0.011422032 -0.030144542 0.005439485 -0.00011866311
0.02616231 0.029905295 0.009088915 0.025796251 0.008730043 0.023342697 -0.0019053846 0.006787608
-0.0005084476 0.0030563883 -0.0077672536 0.013979016 0.029495949 -0.038420107 0.00073862524 -0.01591563
-0.009802336 -0.015250835 -0.021115422 -0.009897742 0.046938594 -0.015900297 -0.009780762 -0.009803305
0.0048569413 0.037397996 -0.012624546 -0.014837851 0.0044533676 0.05292367 0.0020648697 0.0004178817
-0.009915694 0.030763417 -0.0141502535 -0.014017765 -0.0347163 0.0042266096 -0.013296826 -0.0030366336
-0.00018295537 -0.014862687 -0.02511742 0.01963896 0.015543644 0.034979105 -0.052106354 0.01175824
-0.0039567007 0.028696626 0.03550964 0.02386869 0.010834036 0.0010102324 -0.0430519 -7.151873e-05
0.009051918 -0.022367686 0.0063541997 -0.030333633 0.011736607 -0.00807194 -0.012637259 -0.0058666156
-0.015985427 -0.020153893 0.02606599 0.00019964238 -0.034119137 0.01625212 0.031054355 -0.04482953
0.012680676 0.015342851 0.032092415 -0.011988807 0.025172602 -0.026275294 -0.0058016875 0.024050405
0.039460547 0.00075589446 -0.014926307 0.039059136 0.038885795 0.035584383 -0.0025143072 0.011579896
-0.034991175 -0.0061868504 -0.009127936 0.023135725 -0.003034759 -0.0031946152 0.0055063954 -0.0029204788
-0.0077778855 0.05036673 -0.020312013 0.0066269273 -0.003157365 -0.0038031384 -0.000631892 0.056375667
-0.016395079 0.0009000364 -0.031670135 0.07005648 -0.010776121 0.0088056065 0.013829211 -0.03726519
0.031470098 -0.009387448 0.0023162514 0.023283651 -0.014169527 -0.0008035329 -0.015803305 0.041424684
-0.02320454 -0.01710829 -0.0023915628 0.01981103 0.008654904 0.01855771 -0.01399192 -0.011601973
-0.01892289 0.016279673 0.011979508 -0.0036151963 0.0036506345 0.034090806 -0.0049082846 0.015086259
0.03379783 0.008294374 -0.012550607 -0.02130759 -0.016673092 0.0299214 0.0057390253 -0.00895275
0.017497642 0.036453236 -0.030989945 0.0016584398 0.021243617 0.003213514 0.0050951014 0.016461248
0.013093567 -0.012171018 0.017800832 0.022418968 0.01774596 -0.02974495 -0.0038344606 -0.0060136295
-0.005401674 0.0038753755 -0.010262511 -0.0067363237 -0.024315411 -0.00949678 0.028371327 0.028543068
-0.015946079 0.020051777 -0.022002919 0.05769861 -0.03426921 -0.017899776 -0.01926919 0.010226554
0.022501282 0.009053091 4.9225728e-05 0.0006653996 0.013685334 -0.033773165 -0.0145306 0.024076149
0.010258568 0.033396464 -0.023946933 0.003956353 0.01644108 0.013810424 -0.0059085027 -0.018898431
0.008983358 -0.0021802257 0.005710856 0.012760746 -0.03020664 -0.017177168 -0.030327836 0.012912948
-0.0045357454 -0.013215186 -0.026425596 -0.006601694 -0.0074806237 -0.005774004 0.0035720214 -0.009866441
-0.014871167 0.026022198 -0.003920029 0.0023548375 0.03210174 0.034863476 -0.033701085 0.007332847
0.0035760119 -0.012805851 -0.035890445 0.0054430994 -0.029765882 0.0142692 -0.015422205 0.001411306
-0.03482064 -0.029984739 0.016888754 -0.014015936 0.004211255 -0.030853428 0.0040665115 -0.014818647
0.026324188 0.008606131 0.05472386 -0.037835874 0.01895035 -0.014112183 -0.03642001 -0.010217479
-0.016708074 0.004793331 0.010758711 0.021000156 0.025785118 -0.027761895 -0.009427122 -0.015961112

vision_model.embeddings.position_embedding.weight f4 [257, 32]
00000000: 1b4d f83b dd50 333c 18c0 ccbb 725f 9f3c
00000010: 1c0f 67bc 7ba8 00bd c981 21bd 7d1a 913c
00000020: 589c 1d3d 54b2 033d 2506 4d3d 8169 71bd
00000030: 4679 a4ba 388f f23c 1d3f e03c 07e6 1fbc
00000040: 57c8 833c 2552 53bc 4e90 cdbb 7887 62bc
00000050: b70b 0d3d 6efc 73bb c707 d53c 2eef acbc
00000060: 8775 afbc f7b6 993b e6d0 07bd 9eb6 363a
00000070: 05e4 8bbc e917 a93b 1d70 2e3c f592 d63c
00000080: 82f8 9bbc 3dd6 613b 6e51 1a3c 8e85 84bc
00000090: 9606 afbc 598d c13c ecd9 1e3d cd57 903c
000000a0: aee5 a7bc eebd cf3c 3904 7439 4906 5ab7
000000b0: 2e5f aa3c d02a 8cbc d9cf f73c 04ec 143c
000000c0: cea6 cbb9 2234 8abc 6da1 983c 8fe9 083d
000000d0: f7c8 03bc ea62 f2bc 2430 c0bc eb98 9bbc
000000e0: acdb 553c 330b 72bc 8e9e 053d e39c 92bc
000000f0: b96d 9cbc 13b6 553c 6036 dd3c 5301 12bb
00000100: c906 5c3c 943d cdbb 0664 8738 670f 193c
00000110: a1b6 d3bb 5db6 3bbc b404 053c d7d1 f43c
00000120: f8f5 b63c c455 1a3a 140a d5bb 0a79 9ebc
00000130: fdef 57bc ae8f b43b 3d82 ca3c 01d0 cbbc
00000140: 77d6 63bc be3c 7dbc e9de 7ebb 90dc c73c
00000150: c636 ec3b 1e0e 18bc 3772 923c e4dd 853c
00000160: 6481 323a 2718 99bc c9f1 4a3c 6996 e03a
00000170: e031 ef3b b2d1 8dbc 218f 9fb9 d3bd 0a3d
00000180: 987a 0cbc e170 993c f266 3dbd 4b75 323b
00000190: 794f 663c 104b 8a3b 798c e6bc dd4e cf3b
000001a0: bef3 533c e4a9 e6bc f987 093d 6a26 123c
000001b0: 0b54 883b aa34 c7ba dd34 0b3c bde5 94bc
000001c0: 02ec c13b 4211 d43b 65a4 aebc 14f5 dcbc
000001d0: 6a4b bc3c 1dbb f2bb d655 193c 107f 313c
000001e0: 646a 94bc af1c 923c fd16 933c 879a d53c
000001f0: 3dfb 46bb 9d2e 00bc 167c 84bc 5489 813c
00000200: 0429 853c 3eb2 043c ce02 413c 4048 f3bc
00000210: 38f8 24bc 217d dc3c 4dec 033c 7d48 94bc
00000220: 0584 bb3c c5a5 a03c d50f c7bb ca73 90ba
00000230: 3058 4cbb 3d07 393b 43ea 1a3c c457 49bc
00000240: 86e8 0f3d 8102 0a3c 30fd d8bc b36e 763c
00000250: 8769 1e3d 9051 57bd ded9 19bc ee5a 483c
00000260: d7ce e7bc 4e78 153c b962 3d3d e535 8b3c
00000270: e0b2 513b b82e f93b ae6e 183c 6323 1bbd
00000280: 4ba1 4cbc ab23 c3bb 1acd 8b3b 8b7f c3bc
00000290: 0655 e83b 104a c23c 894b a13b 507a 123c
000002a0: ee25 1dbc b796 75ba d5db c4bb 069a e33b
000002b0: d31a 953c 7315 71bc 61d8 d13b f341 dcbb
000002c0: 051d bd3c 5c16 c5bc 8302 a0bc a4d2 67bb
000002d0: 10fe a23b d896 86bc 33d4 3dbc 6651 bbbc
000002e0: fbd9 45bd b603 02bd bd78 0abd 4152 bb3c
000002f0: fcff 01bc 2bd8 7c3b 641a d9b9 b7a4 7b3c
00000300: cccc 7d3b 14b9 0b3b 50e5 f73c 46e9 323c
00000310: 0d58 34bc 5dce b63b 1897 afbc 6da0 9bba
00000320: 7fdb 043c fbd1 2fbc 4f4b c5bc 993c 8d3c
00000330: 577a bdbc 5363 fbbb a19a d03b 26ff ae3c
00000340: 1700 0f3c b9ca 9fbc c7b4 7bbd 472d 9e3c
00000350: 040d 853c 8129 b73c 6238 69bc 7014 f83c
00000360: e608 8bbc 4670 593c 17f6 96bc 2f82 2f3d
00000370: dd5a 2ebb 6ea2 7abc 20ea c2bc 87e3 31bc
00000380: a7c0 56bc 92a9 4e3c ad7c b5bb ef6b 5c3c
00000390: c6fa 0d3d 1445 18bb 0e86 e6bb dedf 34bc
000003a0: 2618 f1bb 5b10 33bc 984d 793c e46c 8d3c
000003b0: 7899 e3bb 7ca3 debc e24f 92bc b341 ed3b
000003c0: 64c0 dd3c f7fd 58bb f661 903c e094 96bb
000003d0: aae0 e3b9 5824 9c3b 2b07 653d ee83 c0bb
000003e0: dc77 533d 0afd 383c 8bc8 c93c 9ea2 453c
000003f0: 1838 7fbb 19c6 1e3c 1c52 55bc 5c62 3c3d
0.007577551 0.010944572 -0.0062484853 0.019454692 -0.014102723 -0.031410675 -0.039430413 0.017712826
0.03847918 0.03215249 0.050054688 -0.058938507 -0.0012548349 0.029609308 0.027373845 -0.009759433
0.01608674 -0.012898003 -0.006273306 -0.013826244 0.034435 -0.0037229317 0.026004685 -0.021110144
-0.021418346 0.0046910006 -0.033158205 0.0006969961 -0.017076502 0.005160321 0.010646847 0.026193121
-0.019039396 0.0034459971 0.009418828 -0.016176965 -0.021365445 0.02362697 0.038782045 0.017619992
-0.020495262 0.02535912 0.00023271226 -1.2995276e-05 0.020797338 -0.017110258 0.030250477 0.009089474
-0.00038843456 -0.016870562 0.018631661 0.033425864 -0.008043519 -0.029588182 -0.023460455 -0.018993815
0.013052862 -0.014773178 0.032621913 -0.017897075 -0.019095289 0.013043898 0.027003467 -0.0022278621
0.013429352 -0.006263444 6.4559325e-05 0.009342051 -0.00646098 -0.011457053 0.008118797 0.029885216
0.022334084 0.0005887414 -0.0065014455 -0.019344825 -0.013179776 0.005510292 0.024720306 -0.024879457
-0.013906113 -0.015456377 -0.003889019 0.024397165 0.007208678 -0.00928071 0.017876728 0.016341157
0.0006809442 -0.018688275 0.012386748 0.001713467 0.0072996467 -0.017311905 -0.00030433483 0.033872437
-0.0085741505 0.018730583 -0.046240754 0.0027230557 0.014057034 0.004220374 -0.028143154 0.00632654
0.012936531 -0.028157182 0.03357694 0.008920291 0.0041604093 -0.001519819 0.00849649 -0.018175954
0.005918027 0.006471784 -0.021318624 -0.026972331 0.022985179 -0.0074075595 0.009358844 0.010833517
-0.018117137 0.017835943 0.017955298 0.026074661 -0.0030362152 -0.0078236135 -0.01617245 0.015812553
0.01625491 0.008099137 0.011780454 -0.029697537 -0.010068946 0.026915135 0.008051944 -0.018100971
0.0228901 0.019610295 -0.0060748854 -0.0011020836 -0.0031180494 0.0028233074 0.009455266 -0.012288991
0.03513386 0.008423449 -0.026487917 0.015041041 0.038674857 -0.05256802 -0.0093903225 0.012228711
-0.028296871 0.009122921 0.046236727 0.016993472 0.0031997487 0.0076044463 0.009303732 -0.037875544
-0.012489627 -0.0059551797 0.0042663934 -0.023864528 0.0070902137 0.023716956 0.0049223346 0.008940294
-0.009591563 -0.00093684666 -0.0060076513 0.0069458513 0.018201267 -0.014714587 0.006403968 -0.006721729
0.023085127 -0.024058513 -0.019532448 -0.0035373354 0.0049741343 -0.01642935 -0.011586237 -0.022865962
-0.048303585 -0.03174182 -0.03380655 0.02286637 -0.007934567 0.0038580995 -0.00041409128 0.015359095
0.0038726805 0.0021320032 0.030260712 0.0109198745 -0.011007321 0.0055787996 -0.021434352 -0.0011873372
0.008108973 -0.010731216 -0.024083761 0.01724081 -0.023129625 -0.0076717525 0.0063660895 0.021361899
0.008728049 -0.019505845 -0.0614517 0.0193087 0.016241558 0.022358658 -0.014234634 0.030283183
-0.016972017 0.013271397 -0.018427892 0.042848762 -0.0026604452 -0.015297515 -0.02379328 -0.010857469
-0.013107455 0.012613671 -0.005538544 0.013453468 0.034662984 -0.0023234533 -0.0070350235 -0.011039702
-0.007357615 -0.010929192 0.015216254 0.017263837 -0.006945785 -0.027177565 -0.017860357 0.007240498
0.027069278 -0.003311036 0.017624836 -0.004595384 -0.00043464202 0.0047650747 0.05591504 -0.0058751022
0.05162798 0.011290798 0.02463176 0.012062697 -0.0038943347 0.009690785 -0.013020065 0.04599224

vision_model.pre_layrnorm.weight f4 [32]
00000000: 0000 803f 0000 803f 0000 803f 0000 803f
00000010: 0000 803f 0000 803f 0000 803f 0000 803f
00000020: 0000 803f 0000 803f 0000 803f 0000 803f
00000030: 0000 803f 0000 803f 0000 803f 0000 803f
00000040: 0000 803f 0000 803f 0000 803f 0000 803f
00000050: 0000 803f 0000 803f 0000 803f 0000 803f
00000060: 0000 803f 0000 803f 0000 803f 0000 803f
00000070: 0000 803f 0000 803f 0000 803f 0000 803f
1.0 1.0 1.0 1.0 1.0 1.0 1.0 1.0
1.0 1.0 1.0 1.0 1.0 1.0 1.0 1.0
1.0 1.0 1.0 1.0 1.0 1.0 1.0 1.0
1.0 1.0 1.0 1.0 1.0 1.0 1.0 1.0

vision_model.pre_layrnorm.bias f4 [32]
00000000: 0000 0000 0000 0000 0000 0000 0000 0000
00000010: 0000 0000 0000 0000 0000 0000 0000 0000
00000020: 0000 0000 0000 0000 0000 0000 0000 0000
00000030: 0000 0000 0000 0000 0000 0000 0000 0000
00000040: 0000 0000 0000 0000 0000 0000 0000 0000
00000050: 0000 0000 0000 0000 0000 0000 0000 0000
00000060: 0000 0000 0000 0000 0000 0000 0000 0000
00000070: 0000 0000 0000 0000 0000 0000 0000 0000
0.0 0.0 0.0 0.0 0.0 0.0 0.0 0.0
0.0 0.0 0.0 0.0 0.0 0.0 0.0 0.0
0.0 0.0 0.0 0.0 0.0 0.0 0.0 0.0
0.0 0.0 0.0 0.0 0.0 0.0 0.0 0.0

vision_model.encoder.layers.0.self_attn.k_proj.weight f4 [32, 32]
00000000: 4374 97bd d984 abbc 5911 45bd d9b0 efbb
00000010: cf15 963d c975 96bc a0c2 d0bc 5632 6f3d
00000020: 8d48 5fbd a942 013e f5d3 863d af37 223d
00000030: f1e9 adbc 486f 56bd 53b6 0dbc af6b d7bc
00000040: 29f8 62bd 05e3 a33d 7d12 84ba e6a2 a03d
00000050: 4ea0 80bd fea8 21bd 057d 9f3d 573c 2f3d
00000060: 538d b03d dcd3 8f3d 829d 78bc ffca 00bb
00000070: 3a06 653d d150 a1ba 5d3a 9e3c b213 83bc
00000080: bab4 b538 4bb2 4dbb 0652 e63d 6a72 563c
00000090: 51b9 723c f909 0c3b 3839 dbbc df8b b83d
000000a0: 601e 21bc 5a08 bebc 35bf b5bd 3d00 313d
000000b0: 7b33 97bc 1706 9dbd aa33 c73c abdf 27bd
000000c0: 7d5c 1d3c 1833 77bd b0e0 4a3d d9bd afbc
000000d0: 14e6 793b 9322 45bb 7528 913d 51b2 67bd
000000e0: 8ce3 b43c 8e5b 3bbd 9f15 d7bc 2e5a 3e3d
000000f0: e573 a1bc 6834 4abd a721 ae3d c602 3e3d
00000100: 0562 803d 67b9 4abd 2cdb 163c 40c3 3b3d
00000110: 3a4f a1bd 1aae 12bd 49fd 063e 24d7 383c
00000120: 1ce5 403c da63 173c f6a3 973c bb88 b73c
00000130: eab3 aabd 614d 1dbd 9318 b5bd f5c5 71bc
00000140: 9f63 b53d 5bac ea3d 666d 583d 9049 a7bd
00000150: 5731 583d 5fef 3e3c 3f13 e9bb d0b4 4fbc
00000160: d8bb 1bbc cdeb 31bc 3be7 5f3c cb6c 85bc
00000170: 2019 05bd 95b5 ed3b 70b7 543d 7d82 00bb
00000180: a436 7bbd da7d a0bb 4190 04bd 054b 253b
00000190: 7b7b 53bd a11e c53d 1a07 c83c 4c57 ec3b
000001a0: f7b4 5b3d 71e1 c1bc fecb 68bc 4f6a 853d
000001b0: 0ec2 dcba 05ab a93d 766a 203d 84f9 e1bd
000001c0: 25b9 c83c 522d f8bc 3c8f 943c 0c87 a83d
000001d0: d0a2 973d a089 8bbd a57b db3c 997c 43bd
000001e0: 6751 dabb a15d 863d 3127 43bc 543d 38bd
000001f0: 8772 c33d 0427 9abb 261d 89bd d7cc 71bd
00000200: 6bb6 dabc 22f3 76bc be19 9a3a 2b3d cc3c
00000210: 789b 0e3d 155b 143d f312 afbc cee2 d43c
00000220: f012 953b b5e9 bfbd 20a1 1e3d 7357 8fbc
00000230: 1ed0 8dbd 2f30 5e3c 8786 3ebd cedd 8cbd
00000240: 17f2 393d 06ae 1b3c 0a6d ccbc e3cc 93bd
00000250: 12dd fcbc 9ada a33d 7878 aabc 7896 1d3c
00000260: 2db9 79bd 6c27 e7bc cc95 993d d1a1 093d
00000270: a589 cebc 0605 ecbd 23ba 1bbb 93fa a9bd
00000280: cd0a 8abd 3a2c cd3c b733 8e3c 3f56 3ebd
00000290: 09a1 873c 7c66 08bd 7f58 fb3c 63fa db3d
000002a0: cdcf 943c 38df cabd 42b6 47bd e3b7 ad3b
000002b0: 9529 b5bd f379 0b3d 1cf6 76bd 387b 3dbd
000002c0: 4a16 d83d a1b8 03be 6f1d 8e3d c7ad 12be
000002d0: 805f be3d 92c3 aabd 4c0f 85bd 84ad b03c
000002e0: e913 493c 447d 9e3c 992d 833c 3933 02bd
000002f0: ef99 bcbc fe6d 1e3a 5e7c ddbc c8a2 8abb
00000300: 74a6 95bd 5e05 c13d 069e 033c c067 30bd
00000310: 37b6 68bd 08b4 28bd 5eb8 fbbc 56b4 44bd
00000320: fe1b 28bd fd9b d43d 07f6 a5bc 5f29 2abd
00000330: 2b15 babd 2f79 f53c e517 133e a9b9 4b3d
00000340: feaa 2ebc adb3 24bd c6b6 8f3d 346a 443d
00000350: 020b fe3c f5bf 343d db06 d6bb d83b 9dbc
00000360: 528d 053e 424e 0abb 7357 853d 8f2c a83c
00000370: fd2e fe3d c190 0fbc 6267 013d 6017 a2bd
00000380: 2da9 0b3e 2acf 54bc 04b0 eebc 7ad6 03be
00000390: 3c42 583d 15e3 e73d 942d f2bb 8628 503c
000003a0: dce8 bebc 6a6b 26be 92c5 94ba ec01 96bb
000003b0: 5cf3 d8bc 6fb3 e73d b4c2 ba3c 76d1 893d
000003c0: 4382 a8bc 0709 6d3d 0e9c 7abc 435e 423d
000003d0: a9f6 4e3d f7f5 e2bc 8a89 a5bc b3b1 ee3d
000003e0: 9030 173e 293b 393d 80b1 533c 35dc 943d
000003f0: 9728 3f3d 74fb 823d 9256 b6bd a697 393c
-0.07395222 -0.02093737 -0.048112247 -0.007314783 0.073283784 -0.018366711 -0.02548343 0.058397613
-0.05451255 0.12623085 0.06583396 0.039603885 -0.021229716 -0.05235222 -0.0086494265 -0.026296465
-0.055412445 0.08002285 -0.0010076311 0.078435704 -0.06280576 -0.039467804 0.077875175 0.042782154
0.086207055 0.07022831 -0.015174272 -0.0019652245 0.05591414 -0.001230741 0.01931494 -0.016000602
8.6644155e-05 -0.0031386788 0.112461135 0.013088802 0.014814691 0.002136825 -0.026760682 0.09011053
-0.009833902 -0.023197342 -0.088743605 0.043213118 -0.018457165 -0.07667177 0.024316628 -0.04098479
0.00960457 -0.06035146 0.049530685 -0.021452831 0.0038131522 -0.0030080422 0.07087795 -0.05656654
0.022081159 -0.04574161 -0.026255427 0.04647272 -0.019708583 -0.049366385 0.085025124 0.046389364
0.06268696 -0.04949322 0.009207528 0.0458405 -0.078764394 -0.035810567 0.13182558 0.011281762
0.011773374 0.009240115 0.0185108 0.022404065 -0.08335097 -0.038403872 -0.08842578 -0.014756669
0.08856892 0.114586554 0.052838705 -0.08168328 0.05278143 0.01165375 -0.00711289 -0.012677386
-0.009505235 -0.010859442 0.0136659695 -0.016287228 -0.032494664 0.0072543123 0.051932752 -0.0019609027
-0.061331406 -0.004897815 -0.032364134 0.0025221717 -0.051631432 0.096249826 0.024417449 0.007212555
0.05363938 -0.02366707 -0.014208792 0.065144174 -0.0016842501 0.082845725 0.03916403 -0.110339195
0.024502346 -0.030295048 0.018134706 0.08228883 0.07404101 -0.06813359 0.026792357 -0.047726247
-0.006662536 0.06560827 -0.011911199 -0.044980362 0.09543329 -0.004704358 -0.06695013 -0.05903324
-0.026698312 -0.015072616 0.0011756939 0.02493151 0.034816235 0.036219675 -0.02137134 0.025987055
0.0045493767 -0.09370748 0.03872788 -0.017497754 -0.06924461 0.013561293 -0.046515014 -0.068782434
0.04539689 0.00950194 -0.024954338 -0.072168134 -0.030867133 0.08000679 -0.020809397 0.009618394
-0.060967613 -0.02821704 0.074992746 0.033601586 -0.025212118 -0.11524396 -0.002376207 -0.08299746
-0.06740341 0.025045503 0.017358644 -0.04646897 0.01655628 -0.03330086 0.030681847 0.10741117
0.018165493 -0.09905857 -0.0487578 0.005301462 -0.08845822 0.034051847 -0.060293302 -0.04626009
0.10551126 -0.12863399 0.06939208 -0.14324103 0.09295559 -0.08338083 -0.06497058 0.021567114
0.012272813 0.01934684 0.016012954 -0.03178713 -0.02302262 0.0006043612 -0.027036842 -0.004230831
-0.07307139 0.09424852 0.008033281 -0.043067694 -0.0568144 -0.041187316 -0.030727562 -0.048023544
-0.04104232 0.10381315 -0.020258917 -0.04154336 -0.09086069 0.029965011 0.14364584 0.049737606
-0.010660885 -0.040210415 0.07017283 0.047952846 0.031011108 0.044128377 -0.006531579 -0.019193575
0.1304219 -0.0021103774 0.0651082 0.02052906 0.12411306 -0.008762539 0.031592734 -0.07914615
0.13638754 -0.012988845 -0.029136665 -0.12874785 0.05279754 0.11322609 -0.0073906872 0.012704974
-0.023304395 -0.16251913 -0.0011350384 -0.004577866 -0.02648323 0.11313521 0.02279792 0.06729405
-0.020569926 0.057869937 -0.015295995 0.047453176 0.050528202 -0.027705176 -0.020207185 0.11654987
0.14764619 0.045222435 0.012920737 0.07268564 0.04666957 0.06395617 -0.08903231 0.01132766

vision_model.encoder.layers.0.self_attn.k_proj.bias f4 [32]
00000000: 0000 0000 0000 0000 0000 0000 0000 0000
00000010: 0000 0000 0000 0000 0000 0000 0000 0000
00000020: 0000 0000 0000 0000 0000 0000 0000 0000
00000030: 0000 0000 0000 0000 0000 0000 0000 0000
00000040: 0000 0000 0000 0000 0000 0000 0000 0000
00000050: 0000 0000 0000 0000 0000 0000 0000 0000
00000060: 0000 0000 0000 0000 0000 0000 0000 0000
00000070: 0000 0000 0000 0000 0000 0000 0000 0000
0.0 0.0 0.0 0.0 0.0 0.0 0.0 0.0
0.0 0.0 0.0 0.0 0.0 0.0 0.0 0.0
0.0 0.0 0.0 0.0 0.0 0.0 0.0 0.0
0.0 0.0 0.0 0.0 0.0 0.0 0.0 0.0

vision_model.encoder.layers.0.self_attn.v_proj.weight f4 [32, 32]
00000000: fc04 ae3d aab6 29bc 8ba7 97bd 0ab6 c7bd
00000010: 35ae c4bc 48f8 a83c 3029 33bd 2c57 95bc
00000020: 896c 81bc 647c 903d 0773 273d e5bb 82bd
00000030: 14d5 2bbd 638b 17bc 914a 4abd 2a5b 823d
00000040: 0647 e2bd 6942 193d 93f4 7abc b18a aebc
00000050: 407b 9ebd 9723 5c3c c7b9 593c e003 7f3d
00000060: 34cf 8bbc 2570 0d3e d257 d83d 9f2b 883c
00000070: 45ab 50bd 26eb 773d e1e6 393d 5e78 ca3d
00000080: f085 afbd 5dae 12bd a5fa 373d d053 893d
00000090: d022 64bc a546 89bd a261 31ba 41f1 af3d
000000a0: 21f0 c9bd 4285 30bd a346 da3d e5ca 3f3c
000000b0: f820 333d 187a 10be dd3b 9e3c c76b 1b3d
000000c0: a2df cdbd 3294 91bd e836 143c b857 0a3d
000000d0: f065 c43d 1e70 75bc e495 583c d5a4 863d
000000e0: c5fa a93c 2826 89bc 9858 613b caa1 8fbd
000000f0: 5937 a93c 522f ad3c 6e34 363d b079 973d
00000100: 3094 c5bd 0c47 92bc 61fb f5bc ffad 8c3b
00000110: f3f3 66bd 83ad d9bd c910 b33c 18ba 3cbd
00000120: 7a26 aa3d 1de1 febd 3610 dabc c4ae 77bd
00000130: 5117 32bd 945b 7abd 9539 0d3c d284 68bb
00000140: fd04 83bc a6f4 69bc e82a 00bc 40f8 c53c
00000150: 57fb 4a3b 3f72 e2bc 5e9c 733d af02 013c
00000160: 1be8 bfbb e3bf 5cbd 0591 c03d 88da 35bc
00000170: 60c9 6e3a 5f54 133d 4f1f 2dbd 11b8 9abd
00000180: 4ebe 4f3d db5e 963d 9837 2d3c fd29 84bc
00000190: d267 863c 542e c4bd 8c2d 353d 4d4d 443b
000001a0: b32e b63d 7bfe c53c 446a 613d 4a1c b83c
000001b0: 305e 2c3d 72d4 e73c 38fb f3bc f0c3 c43c
000001c0: 5f40 f4bd c2eb e3bc 6878 0e3c e6f7 893c
000001d0: 8689 a4bb 1e96 823d 3ab4 bbbd 0d46 1bbd
000001e0: aa4b 943d b9dd fdbd 88da 093e ff96 403d
000001f0: 91c4 b2bc 7fc6 babc 418f e83b 8d5e 513d
00000200: a0e6 9b3d 2cd5 b9bc 116c 603d d651 0a3b
00000210: 7910 fd3d 42a2 bebc a74c 91bd d46f 3bbc
00000220: 381d e73c 8792 023d d4d9 f1bc a3ad 97bc
00000230: 8423 8e3d 6afd 5ebd 92b0 0dbd c04e 643d
00000240: 9372 7ebb 5c95 afbc 5c2c 78bc d32d d3bd
00000250: 260a 813d e7a5 16bd 0ce6 4c3b 1d24 5bbd
00000260: 156c 09bd 3af6 00bd 2d9c 983c 9942 363d
00000270: 3df7 2dbd 05b6 293c dbe2 cc3d 0856 43bd
00000280: 5c82 d1bd a84d aabc 6f99 993d 4577 4fbd
00000290: 47a5 a8bd 9028 57bc 77a5 053d 6069 49bd
000002a0: fc0d b2bd e2e5 00bd 505a a8bc 1fac 0c3e
000002b0: e4e6 75bd 4b56 1fbd 54c4 8ebd b614 a7bd
000002c0: a8d9 d73d 4f98 c63d 446d dcbc d46b c33d
000002d0: f118 6dbd f829 1dbc 6da4 68bd 6544 88bc
000002e0: 1401 86bd 7a50 01bb 4284 4abd a7e9 aebc
000002f0: 58b5 45bd 822c a83c e951 0bbe 9f9c 4dbd
00000300: f462 6d3b 4e16 dc3d 159b 00be d5c5 7a3d
00000310: 97ff 8dbc e884 713d c3c7 7e3c 00e4 93bd
00000320: 7a03 763d 6b64 963d 1fe1 91bc 8833 8cbd
00000330: c8f2 853d d7e5 cebb c8ee 4bbd 4169 463d
00000340: e53e 6c3d 7373 3f3d c03c adbd 1e5e e8ba
00000350: 451c 97bd 2db7 183d a752 113d db51 e9bc
00000360: 6ff9 c7bc e04e 323d 0c53 14bd 8f05 25bd
00000370: 13fb 243d b63a 04bb 239e febd ce77 50bd
00000380: 94b2 d5bd 326b 35bb 9a9d 30bd 01a5 9c3d
00000390: a10e 7f3a c5ad 533c ec53 b63c 0479 c7bc
000003a0: b0d5 103c 855d 173d 8a85 803c 5542 76bd
000003b0: 847d 993b d9b5 33bc 5ab6 4cbd 86d0 db3d
000003c0: cb85 0bbc b923 6dbd ab02 3c3c 9627 a63c
000003d0: 1978 023e 22ad fb3b 2659 dabd 8405 0dbd
000003e0: a89b c23c 683e 0bbc 9384 e4bc 75ac cbbc
000003f0: c83b 633d df06 ba3c 043c dfbb 4fec 583d
0.084970444 -0.010358492 -0.07405003 -0.09751518 -0.02400885 0.020626202 -0.04374045 -0.018230043
-0.015798824 0.07054976 0.040881183 -0.06383494 -0.041951254 -0.009249541 -0.04938752 0.063650444
-0.11048703 0.03741685 -0.0153171 -0.021306368 -0.07738352 0.01343622 0.013288922 0.062259555
-0.017066576 0.13812311 0.105636254 0.016622363 -0.050944585 0.06052699 0.0453862 0.098862395
-0.085704684 -0.035810817 0.044916768 0.06705439 -0.013924316 -0.067029275 -0.00067665626 0.085909374
-0.09860254 -0.043095835 0.10658004 0.011706089 0.043732613 -0.14109075 0.019315654 0.03794458
-0.1005242 -0.07108344 0.009046294 0.03377506 0.095897555 -0.014980344 0.01321933 0.06574408
0.020749459 -0.016741827 0.0034385081 -0.07013281 0.020656275 0.021140728 0.044483595 0.07396257
-0.09647405 -0.017856143 -0.030027093 0.004293203 -0.05638499 -0.10628798 0.02185859 -0.04607591
0.0830812 -0.12445281 -0.026619058 -0.060469404 -0.043479268 -0.061122492 0.008619686 -0.0035479558
-0.01599359 -0.01427952 -0.00782273 0.024166226 0.0030972564 -0.027642367 0.059475295 0.007874175
-0.0058565265 -0.053893935 0.0940266 -0.011099465 0.00091089867 0.035969134 -0.042266186 -0.07554639
0.050718598 0.07342311 0.010572337 -0.016133303 0.016406927 -0.09579149 0.04423289 0.0029953301
0.08895626 0.024169197 0.055032983 0.022474427 0.04208201 0.028299544 -0.029782876 0.024019212
-0.1192634 -0.027822379 0.008695699 0.01684184 -0.005021277 0.06376289 -0.09165235 -0.037908603
0.07240994 -0.12395806 0.1346227 0.047019 -0.021822246 -0.022799728 0.0070971553 0.05111556
0.076123476 -0.022684656 0.05479056 0.0021105907 0.123566575 -0.02327073 -0.070946984 -0.011440236
0.028212175 0.03187802 -0.029522814 -0.018515414 0.06940368 -0.054440893 -0.03459222 0.055739164
-0.0038825616 -0.021433525 -0.015147295 -0.10311475 0.06300764 -0.03677931 0.0031265048 -0.053501237
-0.03355034 -0.03148482 0.018629158 0.044497106 -0.042472113 0.010358338 0.10004207 -0.047689468
-0.10229942 -0.020788983 0.07499968 -0.050650854 -0.08234649 -0.013132229 0.032628503 -0.04917276
-0.086940736 -0.031469233 -0.020550877 0.13737534 -0.060034648 -0.038900655 -0.0697104 -0.08158247
0.105395615 0.09697019 -0.02690757 0.09542051 -0.057885114 -0.009592526 -0.056797434 -0.016634176
-0.065431744 -0.0019731806 -0.049442537 -0.021351648 -0.048268646 0.020529035 -0.13605465 -0.050198194
0.003622231 0.10746442 -0.12559159 0.061223824 -0.017333789 0.05896464 0.015550557 -0.07221222
0.06006191 0.07343372 -0.017807541 -0.06845766 0.065404475 -0.00631402 -0.049788266 0.04844022
0.05767717 0.04674096 -0.08458853 -0.0017728244 -0.07378439 0.037284065 0.035479214 -0.028481415
-0.024410931 0.043532252 -0.036212012 -0.040288504 0.040278506 -0.0020176596 -0.12432506 -0.050895505
-0.10434452 -0.0027682302 -0.04311905 0.076486595 0.0009729658 0.012919848 0.022256814 -0.024349697
0.00884001 0.03695442 0.015688676 -0.060121853 0.004684152 -0.010968649 -0.04997859 0.10733132
-0.008515785 -0.057895396 0.0114752455 0.020282548 0.12741126 0.007680551 -0.10661535 -0.03442909
0.023755863 -0.0084987655 -0.027895248 -0.024862507 0.055476934 0.022708355 -0.0068125743 0.052959736

vision_model.encoder.layers.0.self_attn.v_proj.bias f4 [32]
00000000: 0000 0000 0000 0000 0000 0000 0000 0000
00000010: 0000 0000 0000 0000 0000 0000 0000 0000
00000020: 0000 0000 0000 0000 0000 0000 0000 0000
00000030: 0000 0000 0000 0000 0000 0000 0000 0000
00000040: 0000 0000 0000 0000 0000 0000 0000 0000
00000050: 0000 0000 0000 0000 0000 0000 0000 0000
00000060: 0000 0000 0000 0000 0000 0000 0000 0000
00000070: 0000 0000 0000 0000 0000 0000 0000 0000
0.0 0.0 0.0 0.0 0.0 0.0 0.0 0.0
0.0 0.0 0.0 0.0 0.0 0.0 0.0 0.0
0.0 0.0 0.0 0.0 0.0 0.0 0.0 0.0
0.0 0.0 0.0 0.0 0.0 0.0 0.0 0.0

vision_model.encoder.layers.0.self_attn.q_proj.weight f4 [32, 32]
00000000: e670 1ebd 2fd5 2a3c fc63 eb3d 4e77 4dbd
00000010: 606d 50bb 3490 96bd 2399 a6bd d7a5 b33c
00000020: 073a fa3c b6b0 63bc 06de 2abc 5516 4bbc
00000030: 1f01 d2bd 2867 9d3c ddd1 a7bc 1c0c 81bd
00000040: c8df 913d 9e48 6a3c cf20 9fbc 957e e23b
00000050: 9f40 773d 3595 ba3d ed12 003c d911 24bc
00000060: 9386 163c d25d ef3c 9b1b 22bd bebb 89bb
00000070: bd07 a6bc c287 4abc bf4a f73c 99ee 4bbc
00000080: 4ea1 513d 0d08 543d 7747 a6bd 9dd9 b6bc
00000090: e59d a2bc cd95 22bd b2c2 023e 6b06 61bd
000000a0: 8437 3c3d da9a cabc 2753 5d3c fc99 eebd
000000b0: 584a c93c 23e9 7cbd 0336 873b d741 b7bc
000000c0: 3580 a2bc 12a2 bc3d 9e07 c43d 2be9 acbd
000000d0: cf76 c338 0f1c 273c 9621 c7bd 4553 83bd
000000e0: 360c e73c e0d4 16bd 085f 23bd 66f8 ad3d
000000f0: e970 40bc 44c9 dbbc 42ef 6cbd 82e4 853d
00000100: d5b6 6dbc 776f 283d 5d9c 49bd 4d39 5ebd
00000110: 0aaa aebd 6bfa b8bd fe98 293d d5c7 103d
00000120: f016 b13d 6143 183d c2ab 3ebb b654 cabc
00000130: be71 133d 2ec0 01bc 3e71 263d 0fa4 c3bc
00000140: 5302 83bd 623a f03c f42b 0ebd e5a3 78bc
00000150: c9e1 a13c a419 3c3d ab7e 10bd 18ab a7bb
00000160: 3390 fd3d 2ed3 7a3d a474 5e3c faa0 59bd
00000170: b80c f43c 2aa3 21bd 74d0 5a3c a032 b13c
00000180: d78a 0fbd b4c1 3fbd 72b1 22bd f7f1 1f3c
00000190: 8b56 943a 7bbb dd3d 8a36 643d cbed b53c
000001a0: 8d3e 1f3d 5174 5cbd d787 2f3d d5bb 883d
000001b0: 4ecf 42bd 0d33 8a3a d73d e8bd 459a 2fbd
000001c0: 5822 8039 2a21 6dbd 1fc7 203d ef20 983c
000001d0: d8f5 bc3c 4527 a23c dcec d7bc 4d3b d83c
000001e0: 743d e0bd 8a87 aa3d 98e6 5ebc 77d5 9ebc
000001f0: 8013 93bd 8e70 6bbc f1b3 6ebd cc39 09be
00000200: 4832 7b3d 6ac9 333d 72bb c83c 96fd bfbd
00000210: aa85 033d 6260 69bd c987 703c 8d34 1ebd
00000220: db50 d5bc c586 d9bd aa19 9c3d 0632 00be
00000230: ef70 8f3d dead 593c cbf5 3e3d b92e 0fbd
00000240: 8d21 80bc 35ec bbbd c287 8fbb fe30 373e
00000250: 709c 033d 4308 aa3d e548 913d a575 4b3d
00000260: 5231 78bd 76e0 79bd 83ef 8aba f0f5 ba3d
00000270: 2d1f c6bc 1dd0 ef3c 41a5 903d ac56 193d
00000280: fc60 873c 261f 41bc 7e24 183d ce3f 43bd
00000290: f30a 97bd b30a 95bd d631 dcbc d75d 993c
000002a0: 6300 3a3d fddd 8abd 68d4 bebc fc16 7c3d
000002b0: 6ebc 653c bd90 f53c 64ff 08bd 42f1 94bc
000002c0: 177b 80bd 4f2b 87bd 24bc 40bc 867e 923b
000002d0: 115f 473d 9d59 4b3d 54c4 af3c 519f 4bbd
000002e0: a533 353e 3c4a 8d3c e736 d03d ed5b 27bd
000002f0: 673d bb3c a813 edbb ff5e fc3c 259e 61bd
00000300: 3cab bbbc f2a1 6b3d b206 a93d af88 67bd
00000310: 6144 babd f127 b53b 6583 823d d2f3 9e3c
00000320: 857d 1b3d 1d6d 08be 212f 7ebd 4408 6dbc
00000330: cf9d 943d 5246 b03c 08ca a2bd d3af 2ebd
00000340: 74d9 afbd 96ea 59bd b5f4 083a 4392 e23d
00000350: b821 733d f6f1 21bc 0a72 3ebd c584 433a
00000360: c105 b23c 8af1 b43c 7033 abbc 9268 b53b
00000370: 5a98 243d b824 da3b 9ca7 023d 7cea 223d
00000380: cad3 7bbb e467 ebbd d8de 1c3d 3ac6 93ba
00000390: 2543 28bd 62f7 babd 08d4 8ebd 2477 82bd
000003a0: c9ae 58bd 5e63 973b 0a5f fcbc 1a46 cebd
000003b0: 3c06 f63c 882f e1bc 9370 b3bd 985a d7bc
000003c0: 3df5 163c 82b5 63bd 7063 a4bd 8cb3 b9bb
000003d0: 89a1 973b faf8 27bd 5488 24be 37dc 603d
000003e0: 7d93 043d 0e74 4c3d dcad 28bd 8c38 c73c
000003f0: a22e 853c 0b66 26bc e0a8 d1bc fabf 983d
-0.038681887 0.0104268035 0.1149368 -0.050162606 -0.0031803474 -0.07351723 -0.08134677 0.021929665
0.030545248 -0.013897112 -0.010428911 -0.012395461 -0.1025412 0.019214228 -0.020485813 -0.06301138
0.07122761 0.01429954 -0.019424824 0.0069120624 0.06036436 0.0911049 0.007817012 -0.010014021
0.009187358 0.029219542 -0.039577108 -0.004203289 -0.020267362 -0.012361469 0.030187009 -0.012447023
0.051179223 0.05176549 -0.081190996 -0.022320563 -0.01985068 -0.039693642 0.12769583 -0.05493776
0.04595138 -0.024732042 0.013508595 -0.11650464 0.024571583 -0.061745774 0.0041263117 -0.022370262
-0.019836525 0.092106 0.09571765 -0.08442911 9.3204544e-05 0.010199561 -0.09723203 -0.06412367
0.028204065 -0.036824107 -0.03988555 0.08494644 -0.01174567 -0.02682937 -0.05784536 0.06537725
-0.014508923 0.041121926 -0.049221385 -0.054253865 -0.08528526 -0.090321384 0.04140567 0.035346825
0.08646953 0.037173633 -0.0029094075 -0.024698596 0.035997145 -0.007919354 0.04063534 -0.02388194
-0.06396928 0.029324714 -0.034709886 -0.015175794 0.019760983 0.04592289 -0.03527705 -0.0051168315
0.123810194 0.061236553 0.013577614 -0.053132035 0.029791221 -0.039462246 0.013355363 0.021630585
-0.035044517 -0.04681559 -0.039720006 0.009762279 0.0011317296 0.10826775 0.055716075 0.022208115
0.038878012 -0.053821865 0.042854156 0.06676451 -0.047560982 0.0010543779 -0.1133992 -0.042871732
0.0002443965 -0.057892956 0.039252397 0.018570391 0.023066446 0.019794116 -0.02635806 0.026395464
-0.10949221 0.08326633 -0.0136047825 -0.019388897 -0.07181454 -0.014370097 -0.058277074 -0.13400954
0.06132725 0.043893255 0.024503443 -0.093745396 0.032109894 -0.056976683 0.014680811 -0.038624335
-0.026039531 -0.106214084 0.076220825 -0.12519082 0.07003962 0.013286082 0.046621125 -0.034956668
-0.015640998 -0.09175912 -0.0043801973 0.17889783 0.032131612 0.08302357 0.07093982 0.04967274
-0.06059391 -0.06100508 -0.0010599945 0.0912894 -0.024184788 0.02927404 0.0706277 0.037436172
0.016525738 -0.0117872115 0.037144177 -0.04766827 -0.07375135 -0.07277431 -0.026879232 0.018721504
0.045410525 -0.06780622 -0.023294643 0.061545357 0.014021976 0.029976243 -0.033446684 -0.018181447
-0.062734775 -0.06600057 -0.011763606 0.004470649 0.048674647 0.04964601 0.021455921 -0.049712483
0.17695482 0.017247312 0.10166722 -0.04085915 0.022856427 -0.007235009 0.030807016 -0.05508246
-0.0229088 0.05752749 0.0825323 -0.056526836 -0.090950735 0.005528443 0.06372718 0.019403372
0.0379615 -0.13322873 -0.062056664 -0.014467303 0.07256662 0.021517906 -0.07948691 -0.042648148
-0.08586398 -0.053202234 0.00052244525 0.110630535 0.05935833 -0.009884348 -0.046495475 0.0007458444
0.02173126 0.022087831 -0.02089855 0.0055361474 0.040184356 0.0066572092 0.031898126 0.039774403
-0.0038425797 -0.11494425 0.038298458 -0.0011274286 -0.04107966 -0.09129216 -0.069740355 -0.063703805
-0.052901063 0.00462 -0.030807037 -0.100719646 0.03003227 -0.027488485 -0.08761706 -0.026288316
0.009213743 -0.05559302 -0.08026779 -0.0056671556 0.004627411 -0.041008927 -0.1606763 0.054897513
0.03236722 0.049915366 -0.04118143 0.024318956 0.016257588 -0.010156165 -0.025593221 0.074584916

vision_model.encoder.layers.0.self_attn.q_proj.bias f4 [32]
00000000: 0000 0000 0000 0000 0000 0000 0000 0000
00000010: 0000 0000 0000 0000 0000 0000 0000 0000
00000020: 0000 0000 0000 0000 0000 0000 0000 0000
00000030: 0000 0000 0000 0000 0000 0000 0000 0000
00000040: 0000 0000 0000 0000 0000 0000 0000 0000
00000050: 0000 0000 0000 0000 0000 0000 0000 0000
00000060: 0000 0000 0000 0000 0000 0000 0000 0000
00000070: 0000 0000 0000 0000 0000 0000 0000 0000
0.0 0.0 0.0 0.0 0.0 0.0 0.0 0.0
0.0 0.0 0.0 0.0 0.0 0.0 0.0 0.0
0.0 0.0 0.0 0.0 0.0 0.0 0.0 0.0
0.0 0.0 0.0 0.0 0.0 0.0 0.0 0.0

vision_model.encoder.layers.0.self_attn.out_proj.weight f4 [32, 32]
00000000: fdda 48be d8c6 bcbd 116f b0bd 2e68 a9bd
00000010: deb5 6ebe a431 a6bc e43b 193e 290c bf3e
00000020: b60b 063d 9ef9 65bc d3fa 173e 9928 1e3e
00000030: a3c4 383e a4f7 9a3d be12 10be b7fd 11be
00000040: cf90 33bd cbb1 fa3d f27f 21bd a5e0 92bd
00000050: a324 803c c5dd 3c3e 607c 293e 762f e4bc
00000060: 686e d33c a5fd b33c 3905 753c 7c90 2ebe
00000070: 39a9 68be 6574 adbe 5bb7 01be d70f 613d
00000080: a242 d63e 71f9 03be 50e9 dabd adc6 51be
00000090: a8c7 443e 5554 563e 94f2 d43c 9aef 94bb
000000a0: c684 b13e 09af 0bbe f873 17be acdb 183e
000000b0: 226f 89bd 54b1 233d cff9 8b3c 6d03 96bd
000000c0: 9193 7abd 51cd 6bbe 429b 9f3c 9550 cd3d
000000d0: 19fc 65bd 21d6 423d ba3b 35be 4db2 74be
000000e0: 8ffe e53d 2ba3 463d 2a99 353e bb9c 553e
000000f0: ad59 263d 4bc6 dabd 31d4 22be 64a5 12be
00000100: af62 333d caa5 36be cc9c 96bd 26b8 453e
00000110: ec79 8f3c 7a4f 933e 10a1 8fbe 2266 323c
00000120: c971 863b 002f b93c 1ac8 183e cd25 e93d
00000130: 51f7 953d 2190 3f3d 5d5d 21be 2d1f 613e
00000140: 5284 1f3d 8b21 2a3e 13eb 39be 8445 153e
00000150: c5c4 f23d 5423 193c 770b a53e 5c85 113d
00000160: bcae 733d 8c07 853d e87d 4e3e 6ecf a53b
00000170: 67ab 923e db88 f7bd 3deb d63d 8c96 75be
00000180: ff9e 003e 0ed7 7a3e 0ed4 70be 8ab3 5f3e
00000190: e58e 20be e4f2 b73e 2d60 46be 2d54 b23e
000001a0: f110 0c3e 368d 6d3e b1cd b2bd d86c 8ebc
000001b0: 1aa2 6b3d b4e3 6c3d ec40 e63e 197d cb3e
000001c0: 9cd6 80bc 4b95 3a3e 5c2a 63be f429 cd3a
000001d0: 40ac 7c3e 0576 e0bc 27cf 7a3d 29e4 7abd
000001e0: 8795 993e ac78 cc3d 406d a8bc 0620 a23c
000001f0: 2cf0 4dbe 6190 903e 91ca 6abe f0f9 a83e
00000200: 41f2 013e ee25 8cbb 484b 9abe a9b6 62bd
00000210: 115f 5ebe c265 c7be 1cf1 1e3d 85e7 27be
00000220: 5248 313b b528 5f3e e7a4 3ebe 46d6 193e
00000230: 7461 1d3e 084f 2fbe c594 363c 5506 823d
00000240: 1a6c 9fbd bea8 0b3e 96f4 463b bd03 333e
00000250: abec 4fbc 6f28 7b3e 22fe e0bd eeb4 043e
00000260: 1247 7cbe 4fcd 1b3e 03cc 163e 87a8 22be
00000270: 9e9b 1a3d d584 5ebc 73be 893d 3fd4 4abe
00000280: 34e7 80be 4a56 4fbd 9069 9f3e 0c3e 403d
00000290: a18f e93d 96b8 d9bd 3732 ec3d fe8d e53b
000002a0: c843 9cbd b1e0 873d f274 bdbe 8a23 e63e
000002b0: 1494 17bd 444d be3d a331 183e 2680 d63a
000002c0: 9ba5 4ebe 5df0 113e 0699 40be bf0a d73d
000002d0: 6cfb 7bbd ee47 7cbc 75b9 e2bd 34b1 d2bc
000002e0: 412f 8fbd 52db d63e 2043 483e 3dfd 94be
000002f0: 695c 873e b42e 98bc 8ddd 60be 9c94 873e
00000300: 7ce9 bc3d f648 773d 59a8 253e 4e7b d13d
00000310: 46bb 733e a3db 943e aae1 063e 458e c43e
00000320: afea a1bd 75c1 ef3c 1cb0 a6be 553b 7c3d
00000330: e175 bfbd 783a 893d b173 fa3c 0ec4 74be
00000340: af0b 31bd 453d a8be c5ed 44bd 77c2 43bd
00000350: 8f5f 0d3e f75a c4be 37bb b0bc bca7 513e
00000360: 781e 17be 41ef 0e3e 43c2 29be d0cf 25be
00000370: c30c 0a3c bdc6 f9b9 f159 51bd 8a56 74be
00000380: b528 ab3d 3e75 343d 9b2e 43bd 76b1 6bbd
00000390: 2e34 9fbd 46d5 e73d 3f78 48bc 7dd2 323d
000003a0: 613d 42be bd8f e83b 7fab 7abc 43bd 5a3e
000003b0: d6db 943d b5d8 3e3e d356 f33d a4fe 763d
000003c0: 7d0a 7e3d 263c 8e3e e7c2 263e b33e a4be
000003d0: ee62 ddbe 7d17 ba3e 6eab b4bd 88e2 503e
000003e0: e67d f3bd 755a b13d d403 74bd 1518 4d3d
000003f0: 630f b03e b9cc 763c c4f1 cfbd aa75 343e
-0.19614787 -0.09217614 -0.08614934 -0.08271824 -0.23311564 -0.020287342 0.14964253 0.37313965
0.032726012 -0.014036564 0.14841776 0.15445174 0.18043761 0.07566765 -0.1406965 -0.14256941
-0.043839272 0.122409426 -0.03942866 -0.07171754 0.01564247 0.18443973 0.16551352 -0.027854662
0.025809482 0.021971533 0.014954858 -0.17047304 -0.22720803 -0.33877864 -0.12667601 0.054946747
0.41847712 -0.12888123 -0.10689032 -0.20485945 0.19216788 0.20930608 0.025994577 -0.0045451643
0.3467161 -0.1364099 -0.14790332 0.14927548 -0.0671065 0.039964035 0.017086891 -0.07324872
-0.061175887 -0.2302754 0.019483212 0.100251354 -0.056148622 0.04756749 -0.17698565 -0.23896141
0.11230194 0.048495453 0.17734209 0.20860569 0.040612865 -0.10682353 -0.15901257 -0.14320904
0.043795284 -0.17836681 -0.073541254 0.19308528 0.017514192 0.28771573 -0.28052568 0.010888608
0.0041029197 0.02260542 0.14920083 0.11384163 0.073225625 0.04676831 -0.15758272 0.21984549
0.03894455 0.16614358 -0.1815608 0.145773 0.11853937 0.009346802 0.3223531 0.035527572
0.05949281 0.0649558 0.20165217 0.005060128 0.28646395 -0.1208665 0.10494087 -0.2398321
0.12560652 0.244961 -0.23518392 0.21845832 -0.1567951 0.35927498 -0.19372626 0.34829846
0.13678338 0.23198399 -0.08730639 -0.017385885 0.05752764 0.057834342 0.44971406 0.3974388
-0.015727334 0.18221013 -0.22184128 0.0015652762 0.24675083 -0.027400026 0.061232712 -0.061252747
0.29996893 0.09983954 -0.020559907 0.01979066 -0.2011115 0.28235152 -0.22928835 0.33003187
0.12690069 -0.0042769825 -0.3013556 -0.05534998 -0.21715952 -0.38944823 0.03880416 -0.16396911
0.0027051163 0.21792872 -0.18617593 0.15023145 0.15369207 -0.17119992 0.011143868 0.06348864
-0.077842906 0.13638589 0.0030358187 0.17481895 -0.012690703 0.24527143 -0.10985972 0.12959644
-0.24636486 0.15215038 0.14726262 -0.158846 0.037746064 -0.013581474 0.067257784 -0.19807528
-0.25176394 -0.0506194 0.31135225 0.046934173 0.11404348 -0.1063091 0.11533015 0.007005452
-0.07630116 0.06634653 -0.37003285 0.4494899 -0.037006453 0.09292081 0.14862685 0.0016365096
-0.20180361 0.14251848 -0.18808374 0.105000965 -0.06151907 -0.015398009 -0.11070529 -0.025719263
-0.06991435 0.41964203 0.19556856 -0.29099455 0.2643769 -0.018576957 -0.21959515 0.26480567
0.09224221 0.060372315 0.16177501 0.10228597 0.23801908 0.2907382 0.13172022 0.38389793
-0.079060905 0.029267052 -0.32556236 0.06158002 -0.093486555 0.06700605 0.030572744 -0.23902914
-0.043224033 -0.32859245 -0.048078317 -0.047792878 0.13805984 -0.3835065 -0.021573646 0.20474142
-0.14757717 0.13958456 -0.16578011 -0.16192555 0.008425894 -0.00047641053 -0.051111165 -0.23861137
0.083573736 0.044057123 -0.04765187 -0.057542287 -0.07773624 0.113199756 -0.0122357 0.04365777
-0.18968727 0.007097213 -0.015299677 0.2136126 0.07268493 0.18637355 0.11881795 0.060301438
0.06202172 0.27780265 0.16285287 -0.32079086 -0.4323954 0.36346045 -0.0882176 0.20398915
-0.118892476 0.086598314 -0.059573963 0.050071795 0.3438674 0.015063458 -0.10153535 0.1762301

vision_model.encoder.layers.0.self_attn.out_proj.bias f4 [32]
00000000: 0000 0000 0000 0000 0000 0000 0000 0000
00000010: 0000 0000 0000 0000 0000 0000 0000 0000
00000020: 0000 0000 0000 0000 0000 0000 0000 0000
00000030: 0000 0000 0000 0000 0000 0000 0000 0000
00000040: 0000 0000 0000 0000 0000 0000 0000 0000
00000050: 0000 0000 0000 0000 0000 0000 0000 0000
00000060: 0000 0000 0000 0000 0000 0000 0000 0000
00000070: 0000 0000 0000 0000 0000 0000 0000 0000
0.0 0.0 0.0 0.0 0.0 0.0 0.0 0.0
0.0 0.0 0.0 0.0 0.0 0.0 0.0 0.0
0.0 0.0 0.0 0.0 0.0 0.0 0.0 0.0
0.0 0.0 0.0 0.0 0.0 0.0 0.0 0.0

vision_model.encoder.layers.0.layer_norm1.weight f4 [32]
00000000: 0000 803f 0000 803f 0000 803f 0000 803f
00000010: 0000 803f 0000 803f 0000 803f 0000 803f
00000020: 0000 803f 0000 803f 0000 803f 0000 803f
00000030: 0000 803f 0000 803f 0000 803f 0000 803f
00000040: 0000 803f 0000 803f 0000 803f 0000 803f
00000050: 0000 803f 0000 803f 0000 803f 0000 803f
00000060: 0000 803f 0000 803f 0000 803f 0000 803f
00000070: 0000 803f 0000 803f 0000 803f 0000 803f
1.0 1.0 1.0 1.0 1.0 1.0 1.0 1.0
1.0 1.0 1.0 1.0 1.0 1.0 1.0 1.0
1.0 1.0 1.0 1.0 1.0 1.0 1.0 1.0
1.0 1.0 1.0 1.0 1.0 1.0 1.0 1.0

vision_model.encoder.layers.0.layer_norm1.bias f4 [32]
00000000: 0000 0000 0000 0000 0000 0000 0000 0000
00000010: 0000 0000 0000 0000 0000 0000 0000 0000
00000020: 0000 0000 0000 0000 0000 0000 0000 0000
00000030: 0000 0000 0000 0000 0000 0000 0000 0000
00000040: 0000 0000 0000 0000 0000 0000 0000 0000
00000050: 0000 0000 0000 0000 0000 0000 0000 0000
00000060: 0000 0000 0000 0000 0000 0000 0000 0000
00000070: 0000 0000 0000 0000 0000 0000 0000 0000
0.0 0.0 0.0 0.0 0.0 0.0 0.0 0.0
0.0 0.0 0.0 0.0 0.0 0.0 0.0 0.0
0.0 0.0 0.0 0.0 0.0 0.0 0.0 0.0
0.0 0.0 0.0 0.0 0.0 0.0 0.0 0.0

vision_model.encoder.layers.0.mlp.fc1.weight f4 [37, 32]
00000000: f63d 13be 0446 07be b611 e83d 93f6 82bd
00000010: 9adc dfbc 7af4 ffbc fef7 0b3d 3bc7 3ebd
00000020: 60ec 09bd 1fe4 80bd 6201 66bc e4e4 4ebd
00000030: 702e 2dbe c3f5 c2bd 1e0e 043e c763 b8ba
00000040: 0d17 ee3d e3a1 2bbe 7efa 3e3d ce00 533d
00000050: ed35 d93d 17b4 01bd 173b 39bd 4e97 8cba
00000060: 667d edbd 7b00 93bd c65a 9b3e 1f7d acbb
00000070: a969 2d3e 43fc 3f3e a1cd 2bbe 77d5 7cbc
00000080: c515 363d 00d6 11bd f629 213e 1a4c 883e
00000090: be11 ba3d 687d 233d 4333 0f3e 887e 0ebd
000000a0: 4373 d83e 8db1 d0bd c3f0 603d ac29 2ebe
000000b0: 70ad ee3c 94ae 853d e2af 33bc b273 493d
000000c0: 7401 25bc 3f1e a0be 3b06 753e 54cb 413e
000000d0: ad78 ce3c df65 87be f4a2 953c e0ca 563d
000000e0: 6983 6d3d 7477 8b3e 7c12 fdb8 2758 e73b
000000f0: 718a 26be 14b8 20be 8da7 973d 0291 a13d
00000100: e1db 0bbd daa6 263e 16bb 5bbc 19cc e3bd
00000110: 675a fe3d cf18 92bd fba6 1d3e a9e8 3f3e
00000120: 9b39 86bd bb8b 903d 7a7d 673e 0984 af3d
00000130: b15c 183d 307a c8bd bfcc 67be 1000 f93d
00000140: c684 a93d 8878 a6bc 1ac3 1ebe 2252 ad3d
00000150: d53b 91bd f4a9 69bd bda2 d43d ccfc 8e3d
00000160: 8c5e 1e3e 45f4 67bc 7ded a6bd 8cf5 58bd
00000170: 834b c33d 4ed0 8fbd 3407 8c3d 21d1 473d
00000180: bead d23c 0265 afbd 27c6 153e 68ea b4bd
00000190: f3a8 04be 7e08 773e 54aa bfbd 804b 0abe
000001a0: bce2 b33d 6d72 13be fc9e ebbd 3a41 ffbd
000001b0: b831 88bd 139c 743a e65c d93d 07cc 5e3d
000001c0: 54be 12be 2d9d 163c 3825 b33d 2197 563d
000001d0: 63eb 33be 358e 7ebc 405e 353d b7bd 773d
000001e0: cf01 22be a0bd ca3d 551b 8abe 5cd2 313e
000001f0: 4c78 153b 93ef 44bd b38a 23be 55a3 8a3d
00000200: 94e9 74be 2296 41be b33b 873c 2b59 c03c
00000210: 26c9 243e ce2e 8c3e 48fa febc 4521 123e
00000220: cac6 42be 8004 89bd c54d 563c 5d7e b7bd
00000230: f267 71be 75ea 243e 47ed 2d3e e7c8 803c
00000240: 8c89 27bc 91ca 12bd a64c 633e beea 55bc
00000250: 09a1 7fbd e52d 373d 4f06 5abc 1b3f 003e
00000260: 5bef 87be e5ce 2bbe 9d89 44be 2c53 f5bd
00000270: 688a e8bd 1349 683d 8c06 b0bd 0ddc 0d3d
00000280: ae8a dabd 8941 3fbe 44a4 03be 0e1f a53d
00000290: 114b 8f3d 091a f13b fbdf 15bb 80d7 25bd
000002a0: f7a0 16bd a7ce e2bd c08b df3c c110 f3bd
000002b0: 3fe0 34be 5e80 27be 5737 3c3c edc2 43bd
000002c0: c836 04bc e4aa a43d 1786 793e 4fab 38be
000002d0: 6a36 a53e 59b6 48be 38f9 b33c 7c69 f1bd
000002e0: 06c8 013e 2031 0cbe d4ca 953e 8561 6f3e
000002f0: 29ba 24be eae0 563d d2bb 21be 04e0 0ebe
00000300: 5072 2dbe 846a 833d 7a07 8e3c ae27 e83c
00000310: 5116 bd3d badc 43be 0c6a 653e 412c 46bd
00000320: aa64 a1bc fcf9 fbbd 07d2 17be ef27 a2bd
00000330: aa46 92be f4f5 c3bc 7f40 15bd 21ea a33e
00000340: 3636 de3d 260e cbbd 60b6 64be 34e3 413e
00000350: b7fc 183d c2c7 d8bd 70d9 45bc fb2c 553d
00000360: 2a83 523e 12a8 d33b 00f0 0c3e 390f a73c
00000370: 3e04 9fbd 585b 02be 0e05 51bc afef 173c
00000380: ef41 4abe fcad 25be 1fb4 9abd 8cf8 603d
00000390: 56f5 f73d 8860 523e 3933 ab3c dfc1 a93d
000003a0: 2a22 033e 32e4 09bd 4275 793d 222d 16be
000003b0: 5c0c 55bc 1695 953d 4995 0dbe 1f9a d8bd
000003c0: 0129 c03d d6d1 dfbd e4cb cbbc 53e5 273e
000003d0: bf6b d83d 2029 5bbe ac62 acbd 5e48 6abd
000003e0: ec9a 7a3e ee97 adbc 09bb 43be 06eb 0c3e
000003f0: ab42 90be 7577 0ebe ffb1 4e3e cdee 863e
-0.14379105 -0.13210303 0.11331503 -0.063946865 -0.02732687 -0.031244505 0.03417205 -0.04657672
-0.03367269 -0.06293511 -0.014038416 -0.050511256 -0.16912246 -0.095195316 0.1289601 -0.0014067822
0.1162549 -0.16760974 0.046625607 0.05151444 0.10605989 -0.031665888 -0.045222368 -0.0010726245
-0.115961835 -0.07177826 0.30342692 -0.005263939 0.16934837 0.18748574 -0.1677766 -0.015431753
0.044454355 -0.035604477 0.15738663 0.2662056 0.09085415 0.03991452 0.13984399 -0.03478864
0.42275438 -0.10190115 0.05491711 -0.17008084 0.029135436 0.06527439 -0.010967227 0.0491826
-0.010071147 -0.31273076 0.23928158 0.1892522 0.025204027 -0.2644491 0.018266179 0.05243957
0.05798665 0.27239573 -0.00012067423 0.007060069 -0.16263749 -0.1569522 0.07405005 0.07888986
-0.03414524 0.16274586 -0.013411304 -0.11122913 0.12419587 -0.07133638 0.15395729 0.18741097
-0.06553956 0.070579015 0.2260646 0.085701056 0.037197772 -0.097889304 -0.22636698 0.12158215
0.08277278 -0.020321146 -0.15504113 0.08462931 -0.0709149 -0.057046846 0.10382602 0.06981811
0.15465754 -0.0141573595 -0.08150766 -0.052968547 0.09535887 -0.07022153 0.068373114 0.048783425
0.025717612 -0.085641876 0.1462637 -0.08833772 -0.12955074 0.24124333 -0.093586594 -0.13505363
0.087834805 -0.14399119 -0.11504933 -0.12463613 -0.06650108 0.0009331118 0.10613422 0.054393794
-0.14330417 0.009192747 0.08747333 0.05239022 -0.17570262 -0.0155368345 0.044279337 0.06048366
-0.15821002 0.09899449 -0.26973978 0.17365402 0.0022807298 -0.04808004 -0.15970878 0.06769434
-0.23917228 -0.18904927 0.016507959 0.023480019 0.16092357 0.2737946 -0.031125203 0.14270504
-0.19021145 -0.066903114 0.013080065 -0.08959649 -0.23574808 0.16105063 0.16985045 0.015720798
-0.010225665 -0.035837714 0.22197208 -0.013056455 -0.062409434 0.044721503 -0.013307168 0.12524073
-0.265498 -0.16778143 -0.1919312 -0.119787544 -0.11354524 0.056710314 -0.08594999 0.034633685
-0.10670982 -0.18677343 -0.12855631 0.08062564 0.0699674 0.00735784 -0.0022869098 -0.04048872
-0.0367746 -0.11074572 0.027288318 -0.1186843 -0.17663668 -0.16357562 0.011487803 -0.047793318
-0.0080697015 0.08040407 0.24367557 -0.18034099 0.32268077 -0.1960081 0.021969423 -0.11787698
0.12673959 -0.13690615 0.29256308 0.23377044 -0.1608664 0.05246059 -0.15794304 -0.13952643
-0.16938138 0.064168006 0.01733755 0.028339233 0.09232772 -0.19127169 0.22403735 -0.048382048
-0.01970132 -0.1230354 -0.14826213 -0.07917773 -0.28569537 -0.02392099 -0.03643846 0.32014564
0.10850184 -0.09914808 -0.22335196 0.18934327 0.037350383 -0.10584976 -0.012075767 0.05204485
0.20557848 0.0064592445 0.13763428 0.020393 -0.07764481 -0.12730157 -0.012757553 0.009273454
-0.19751714 -0.16179651 -0.075538866 0.054924533 0.12107341 0.20544636 0.020898448 0.08288931
0.12806001 -0.03366489 0.06090284 -0.14665654 -0.013003435 0.073038265 -0.13826479 -0.10576271
0.09382821 -0.10928695 -0.024877496 0.16396074 0.10567426 -0.21402407 -0.08417258 -0.05719792
0.2447316 -0.02119061 -0.19114317 0.1376153 -0.28175864 -0.13912757 0.20185088 0.26354066

vision_model.encoder.layers.0.mlp.fc1.bias f4 [37]
00000000: 0000 0000 0000 0000 0000 0000 0000 0000
00000010: 0000 0000 0000 0000 0000 0000 0000 0000
00000020: 0000 0000 0000 0000 0000 0000 0000 0000
00000030: 0000 0000 0000 0000 0000 0000 0000 0000
00000040: 0000 0000 0000 0000 0000 0000 0000 0000
00000050: 0000 0000 0000 0000 0000 0000 0000 0000
00000060: 0000 0000 0000 0000 0000 0000 0000 0000
00000070: 0000 0000 0000 0000 0000 0000 0000 0000
00000080: 0000 0000 0000 0000 0000 0000 0000 0000
00000090: 0000 0000
0.0 0.0 0.0 0.0 0.0 0.0 0.0 0.0
0.0 0.0 0.0 0.0 0.0 0.0 0.0 0.0
0.0 0.0 0.0 0.0 0.0 0.0 0.0 0.0
0.0 0.0 0.0 0.0 0.0 0.0 0.0 0.0
0.0 0.0 0.0 0.0 0.0
